Task C/reruns/best_model_img.pth (torch, 556488 bytes, 4 tensors)

model.0.weight f4 [216, 512]
000000 18 df 20 3c 4a 2d 82 3c 8a cb b7 ba d2 b5 cb 3d
       0.009818815 0.015890736 -0.0014022451 0.09946789
000010 69 23 e5 bc a5 27 e9 bc 6d 45 04 3c 19 11 c1 3d
       -0.027970986 -0.028461287 0.008073193 0.09427089
000020 27 8b 69 3d 0c bd c4 3b e3 4a 03 3d ca f6 dd bb
       0.05701747 0.0060039815 0.03205384 -0.0067738043
000030 cd 60 50 bc 80 4a 8d bd 6d af 12 bc d9 30 fe 3b
       -0.012718392 -0.06898975 -0.008952958 0.007757288
000040 76 51 e0 3b 4e 89 8c 3c f5 c0 ea 3c 8a 7a a1 3d
       0.0068456484 0.017155316 0.028656462 0.078847006
000050 82 da ad 3d 57 fd 58 bd de a9 d8 3c e5 8d cd 3d
       0.08488943 -0.05297598 0.026448186 0.1003683
000060 38 fb 98 3c 74 b7 7d bc 1c 38 db bc e8 92 fb 3d
       0.018674478 -0.015485633 -0.026760153 0.122838795
000070 fd bd 2d bd 0f 8c a5 3b 04 6f e6 3d ff 95 5e 3c
       -0.042417515 0.0050520967 0.11251643 0.013585567
000080 68 20 26 be 8a c7 9f 3d be 04 9d 3d 2b 65 7c bd
       -0.162233 0.07801731 0.0766692 -0.06161992
000090 f2 35 47 bc f5 81 49 3d c0 fe ad 3c 6e e5 b7 bc
       -0.012158858 0.049196202 0.021239638 -0.022448268
0000a0 e2 73 0a 3d ad 18 3c 3d 7c 9f 70 3d b2 d2 d3 bb
       0.03380192 0.04592197 0.058745846 -0.006464326
0000b0 c8 26 10 3c b1 77 5f 3d 80 90 22 bd 9c 13 90 3d
       0.008798309 0.054557506 -0.039688587 0.0703499
0000c0 1f 3c 85 bc 1b 75 b4 bd f8 7f ab bd 26 f2 b9 3c
       -0.01626402 -0.088113986 -0.083740175 0.022698473
0000d0 6e 0e cf bd 4d 4c 84 bd 89 16 f2 3c 25 6e 93 bd
       -0.10110174 -0.06459866 0.029551761 -0.07198743
0000e0 ac 89 e2 bc 25 3e ca 3c cb 49 06 bd 3b 5a 12 be
       -0.027653538 0.024687836 -0.03278522 -0.14292233
0000f0 c1 61 cf 3c ba e3 93 3d 44 4d 56 bd d1 0a a3 3c
       0.025315167 0.0722117 -0.05231978 0.019902619
000100 25 d0 93 bd 5e b9 8e bc f3 50 c6 3d 8b 2b ce bc
       -0.07217435 -0.017422374 0.096834086 -0.025167247
000110 e4 9d 37 3d c9 88 24 3d 51 37 34 3d 9d 9f 26 3d
       0.04482831 0.04016951 0.043998066 0.040679563
000120 f3 76 90 3b 51 49 bf bd e5 bd 06 bc 07 9f d1 bd
       0.004408711 -0.09340156 -0.008223985 -0.1023541
000130 a5 f4 85 bc c8 40 11 3d 41 60 61 3b 43 37 90 3d
       -0.016352007 0.03546217 0.0034389647 0.0704179
000140 98 8e 51 3d 5e f5 a4 bb 2d ed 2e 3d 80 37 d7 3d
       0.05116138 -0.005034133 0.042706657 0.10508633
000150 50 95 32 3d be df 34 bd be d0 8b 3d 4c a8 c3 bc
       0.043599427 -0.04415869 0.06826924 -0.023883961
000160 48 7e 92 bd bb 12 e2 3c 99 7c 62 3d fb b2 9f bd
       -0.071529925 0.027596822 0.055294607 -0.0779781
000170 c1 3a c9 bc 26 96 e5 bc fb 02 6e bc 0a d8 1d bb
       -0.024564149 -0.028025698 -0.014527078 -0.0024085068
000180 5a 71 07 bd e1 56 a5 bd 52 eb 2a bd 45 09 bf 3d
       -0.033067085 -0.080732115 -0.041728325 0.0932794
000190 96 65 ab bd 1c a1 dc 3d 81 54 32 bd fd a3 d0 3b
       -0.08368985 0.10772917 -0.04353762 0.006367205
0001a0 e8 f1 d7 3b 55 a8 4a bd bb 04 b7 3d 1a 8f 19 bd
       0.006590117 -0.04947694 0.08936449 -0.037489988
0001b0 ab 06 94 bd df 52 ad 3b aa 6d fe bd 4f 9b 50 bd
       -0.07227834 0.00528942 -0.124232605 -0.050929364
0001c0 92 72 b2 3d a7 09 2f bd b0 eb 1a 3d 59 62 a0 bd
       0.08713259 -0.042733815 0.037822425 -0.07831258
0001d0 ba 09 19 bd a5 02 bf 3d 9a d3 59 bc e4 78 3f 3d
       -0.03736279 0.09326676 -0.013295079 0.04674615
0001e0 d6 46 88 bd 3b d4 57 3d a8 42 07 bd 20 2a 94 bb
       -0.06654136 0.052692633 -0.033022553 -0.0045216233
0001f0 8e 85 3e bd 38 de 23 3d 59 0f 15 3a 9b 7d a9 bd
       -0.046514086 0.040006846 0.0005686186 -0.082759105
000200 00 90 15 3d 0f 4c ab 3c e9 8c c0 bc 88 94 20 3c
       0.036514282 0.020910291 -0.023504691 0.009801038
000210 2d 75 21 bd b5 f5 9b 3c d9 9a 35 bd 91 b0 1c bc
       -0.03941839 0.01903806 -0.044337127 -0.009563581
000220 09 aa 3a 3b c0 2e 9a bd bc bf 57 bb e6 8b 5f bc
       0.0028482697 -0.07528448 -0.003292068 -0.013644194
000230 19 a3 42 bd e1 19 f4 bd bd 3b fc 3d 44 2b 46 bd
       -0.047518823 -0.119189985 0.12316082 -0.048381105
000240 5c 1b a5 3a 10 e0 4e 3d 58 d5 9a 3d df 21 84 3d
       0.0012596655 0.05050665 0.07560223 0.06451773
000250 05 0b 80 bd dc 02 f4 bd 01 55 09 3c 29 d2 78 bd
       -0.06252102 -0.11914608 0.008382083 -0.0607473
000260 45 b4 46 bc 58 bf 14 3d 19 82 5b bd 4e a7 1c 3d
       -0.012127941 0.036315292 -0.053590868 0.03824549
000270 5e 57 9d 3d 1a 59 90 3c 07 57 3d 3d 92 f4 4b 3d
       0.076826796 0.017620612 0.046225574 0.049793787
000280 b9 10 a9 3c 6e aa 7a 3d 7f 18 24 bd b6 46 2d 3d
       0.020637857 0.06119769 -0.040062424 0.042303763
000290 06 97 cf 3c 7f 67 cc 3d e2 70 85 3d e8 5e 9d 3c
       0.025340568 0.09980678 0.06515671 0.019210294
0002a0 37 18 ac 3c 33 74 97 3d f6 ca 34 3c cb 78 0c bd
       0.02100764 0.0739521 0.011034718 -0.034294885
0002b0 22 f2 30 bc 47 4f 84 3d 5f 82 a1 3d fe 33 36 3e
       -0.010799916 0.064604335 0.078861944 0.17793271
0002c0 a5 7f 81 3d b7 03 fc 3c 16 c6 a6 3d cf ed 1b 3d
       0.063231744 0.03076349 0.08143251 0.03806859
0002d0 b8 1f cc 3c ef a6 9b bb 4b 56 91 bb 51 af 8c 3d
       0.024917468 -0.0047501246 -0.0044353358 0.068693765
0002e0 54 7e 1e 3d ce b6 92 bb 2c dc 4a 3c 71 c1 e5 3c
       0.038694695 -0.0044773584 0.012381595 0.028046342
0002f0 41 76 96 bd 90 92 26 3e 40 83 44 bd c1 d6 1d bd
       -0.07346774 0.16266847 -0.047976732 -0.038534883
000300 0a 49 c4 3d 40 24 38 bd e8 b8 8e 3c 57 8c 8c bd
       0.095842436 -0.044956446 0.017422155 -0.06862705
000310 39 60 7d bd 3e 77 db 3d ed 24 a9 bc 1c 04 cf 3c
       -0.061859343 0.10716103 -0.02064749 0.025270514
000320 10 a3 9a bb fe aa 99 bb ac 7b 2f bd 9d 1c 92 3d
       -0.0047191456 -0.0046895733 -0.042842552 0.07134364
000330 48 00 92 3d 2e 5d 04 3d 08 2c 92 3b 35 18 c3 bd
       0.0712896 0.032315426 0.0044608153 -0.095261015
000340 e6 0b b4 3c e7 e9 34 bc 4e 51 c1 3d de c7 fe 3b
       0.02197833 -0.011042095 0.09439336 0.007775291
000350 72 fe 50 3d 9a fd 57 3c 45 94 0d 3e 66 24 30 bd
       0.051023908 0.013183022 0.13826092 -0.043003462
000360 d2 9d 3a bd eb d7 9a bd 5b 48 b1 3d 26 03 2e bd
       -0.045560665 -0.07560714 0.08656379 -0.04248347
000370 7d 48 60 3d a9 ae 5f 3c 75 0b fc bd 6d 0e be bc
       0.05475663 0.013652482 -0.12306873 -0.023200238
000380 2c d9 8f bd 6c b7 96 bc c8 fa 68 bd 45 0a a5 bc
       -0.07023844 -0.01839801 -0.05687979 -0.020146498
000390 a2 98 d1 3d 5c ae cd 3d a2 c5 d9 bc a4 ec 2e 3d
       0.102341905 0.10043022 -0.026583496 0.042706147
0003a0 45 2b 52 3a 00 99 43 bd c9 c9 a7 3d df d4 40 bb
       0.0008017312 -0.047753334 0.08192784 -0.0029423756
0003b0 aa ce 9c 3c 44 36 a8 3d 0b 60 a0 bd da d2 00 3c
       0.019141514 0.08213475 -0.07830819 0.007862771
0003c0 60 7e 0f be b3 f2 e2 3d af a3 a0 3d d5 c3 80 3c
       -0.14013052 0.110814475 0.0784372 0.01571838
0003d0 45 39 32 bc 1f ab 5d bd d5 e9 8b bd 7b 56 c4 bb
       -0.010877912 -0.054118272 -0.06831709 -0.0059917546
0003e0 f5 49 f2 bc e3 46 ce bd 04 bb ad bd fe e5 98 3c
       -0.029576281 -0.10072114 -0.08482936 0.018664356
0003f0 26 1b 60 3d db f3 a6 3d a5 d5 57 3d 17 9c 98 bd
       0.05471339 0.081519805 0.05269398 -0.07451647

model.0.bias f4 [216]
000000 90 68 4d 3c 61 8b 24 3d 51 37 80 3d c3 cd 02 3e
       0.012537137 0.040171985 0.06260551 0.12773804
000010 7c cf 0a bd 50 9b 7d 3d 81 63 37 bc fd 63 ef 3c
       -0.03388928 0.061915696 -0.011193157 0.029222483
000020 04 7d d8 3c 54 3a dd 3d 9e 4a 79 3d 70 c2 fc 3d
       0.0264268 0.10802141 0.060862176 0.123417735
000030 b8 04 bf ba e5 e6 8b 3c bc 1d 4a 3d 4a f3 3f bc
       -0.001457355 0.017077873 0.049344763 -0.0117157195
000040 8c 6b b5 bc 17 5c 87 bd 4e a4 0a 3b 13 37 b2 3c
       -0.022146009 -0.066093616 0.0021155062 0.021754777
000050 32 2c f2 bc 1f 3a bd 3d d7 b3 3f 3e 21 60 69 3c
       -0.02956209 0.09239601 0.18720947 0.01424411
000060 4e f8 27 3d e9 8d 08 3d 27 0d 09 3d 9b 97 42 3d
       0.041008286 0.03333846 0.03345981 0.047507863
000070 04 a0 b2 3d d4 4b 84 3c c0 76 46 3e 12 ee f9 3b
       0.08721927 0.016149439 0.19381237 0.007627257
000080 1f a7 17 3d 19 04 51 3d c5 72 d9 3d 29 98 64 bc
       0.037024613 0.0510293 0.10617594 -0.013952293
000090 09 07 04 3d b5 66 94 3d 69 80 8b 3d 0d 9b a0 3c
       0.03223327 0.07246152 0.06811602 0.019605184
0000a0 eb 1a 00 bd 01 11 eb 3d 41 68 70 bd 37 e5 36 3d
       -0.03127567 0.114778526 -0.058693174 0.04465219
0000b0 00 98 0d 3e 8c 4f 3b 3b 97 ca d2 3c e9 8a 00 3e
       0.13827515 0.002858135 0.025731368 0.1255299
0000c0 d8 92 27 3a 6c ff 07 3b a5 cb 15 bd b8 dd 0c 3a
       0.0006392426 0.0020751609 -0.036571164 0.0005373615
0000d0 a3 7f d5 3c f2 ad 47 3b c1 95 2b 3d 09 95 b6 3d
       0.026061838 0.003046867 0.041890863 0.08915145
0000e0 d2 6e 1b 3e 77 6b af 3d 0a e9 71 3d ec 11 88 3d
       0.15178993 0.08565419 0.059060134 0.06644043
0000f0 5e 2a 3a 3d d9 1f d2 3d b5 da a3 3c 7b e5 95 3d
       0.04545056 0.10259981 0.020001749 0.073191606
000100 b3 96 82 bc 93 3c 47 3e 04 20 ae 3b a6 9e 7c 3d
       -0.015941 0.19456701 0.005313875 0.061674736
000110 2e 65 4a bb 45 a2 d6 3b 0e da 2a 3c 02 af e0 3c
       -0.0030883062 0.0065501058 0.010427965 0.0274272
000120 0c d6 f8 3d c2 25 8c bc 3b 2a ed bc 21 6b 67 3c
       0.12150201 -0.017107848 -0.028950801 0.014124663
000130 af 63 0a 3e 05 e8 3c 3c 9d a1 62 3d ff ea 68 bd
       0.13514589 0.011529927 0.055329908 -0.056864735
000140 87 f2 5d 3c 07 ee 67 3d d5 4d 92 3d c8 50 5d 3d
       0.013546593 0.056623485 0.071437515 0.054032117
000150 01 d9 30 3d 15 55 c7 3d 79 c3 d6 3d ce bd 5d 3d
       0.0431757 0.09733025 0.10486502 0.05413609
000160 18 da 04 3d 4e bd 81 3c 70 e2 0d 3c 8f e7 5d 3d
       0.032434553 0.015837338 0.008659944 0.05417591
000170 3a a2 a8 3d d9 2a 3c 3e 2f f9 19 bc 5a 95 00 3e
       0.08234067 0.1837572 -0.009397789 0.12556973
000180 e8 5d d9 3b 3e 62 2c 3e 49 5d a9 3c 53 97 c9 bb
       0.006633509 0.16834351 0.020674365 -0.0061520725
000190 23 3f 7a 3d fc 6d da 39 08 ea 91 bb 9e ae b0 3d
       0.061095368 0.00041662145 -0.0044529475 0.086270556
0001a0 58 f1 30 bd 03 c9 3a 3c 70 e3 f0 3c 55 19 a6 bc
       -0.043198913 0.011400464 0.029405326 -0.020275751
0001b0 bc 72 dc 3c 1f de 63 3d ae 39 f5 ba eb f5 29 3c
       0.026910178 0.055631753 -0.0018709206 0.010373573
0001c0 d5 e7 ec 3d 82 d3 61 37 80 85 d9 3d 1e ee 7b 3d
       0.11567656 1.3460291e-05 0.10621166 0.061506383
0001d0 06 fc cb 3d 13 21 87 3d 66 3c 20 3b 9c 91 b9 3d
       0.09960179 0.06598105 0.0024450063 0.09060976
0001e0 d4 d4 1a 3e ba d0 87 bb 38 63 ad 3d 3b dd 00 3e
       0.1512025 -0.004144755 0.0846619 0.12584393
0001f0 65 93 4b bc 2f 2c 81 bd 12 8e 41 3d 9d 34 6c 3d
       -0.012425278 -0.063072555 0.04725463 0.057667363
000200 db b7 9d 3d bf 0d 76 3d c0 d0 dc 3d a0 04 90 3d
       0.07701083 0.060071703 0.107820034 0.07032132
000210 9a e9 10 3d a9 7d 23 bb ac ce c8 3d a5 cf 87 3c
       0.03537903 -0.0024946725 0.098050445 0.016578505
000220 84 b9 a2 3d b4 97 4e 3d a4 07 89 3b 4f 0a bf 3d
       0.079455405 0.050437644 0.004181819 0.09328138
000230 69 9f 79 3d de e3 b7 3c f3 50 06 3e f4 29 97 ba
       0.06094304 0.022447523 0.13116817 -0.0011532889
000240 9e c0 8d 3c 2d 1b 95 3d ce e9 95 3d 5b 6a bf 3d
       0.017303761 0.07280574 0.07319985 0.093464576
000250 51 12 c5 3b 04 3d 1a 3e 43 92 af 3d 1e e4 d1 3b
       0.0060141464 0.15062338 0.08572819 0.0064053675
000260 85 16 d0 3c ff f0 1a 3d dc 30 5e 3c 7b 10 a8 3d
       0.025401363 0.037827488 0.013561454 0.082062684
000270 f7 fe 75 3d 68 3d 83 3b ce d3 9d 3d 9b 1d 3b bc
       0.060057607 0.004005123 0.07706414 -0.011420633
000280 f0 31 91 3c 98 af 8a 3d ae cc f0 bc 1e 7e 11 3d
       0.017724007 0.06771773 -0.029394474 0.035520665
000290 d0 e3 a8 3d b3 89 b9 3d 46 d5 55 3b 30 92 ce 3d
       0.08246577 0.09059467 0.0032628342 0.10086477
0002a0 4b ab 57 bd f5 f7 53 3c 69 ae b1 bb 03 64 c0 3d
       -0.052653592 0.0129375355 -0.0054224026 0.09394076
0002b0 cb 99 ad 3d d1 f5 9a bb 5b 25 dc 3c 48 da 62 3c
       0.08476599 -0.0047290106 0.026873281 0.013845988
0002c0 f0 94 69 3d c4 e0 83 3d 15 ef 19 3d 61 77 7e 3d
       0.057026803 0.06439355 0.037581522 0.062125567
0002d0 e3 a1 81 3d 46 8a 00 3d 64 75 01 3e ee 38 36 3d
       0.063297056 0.031381868 0.12642437 0.044487886
0002e0 5b 19 95 bc ce 0e 2f 3c 00 23 04 3e c0 6f 71 3c
       -0.018200567 0.010684682 0.12903976 0.014736116
0002f0 6a 57 d6 bc a9 bd f3 3d 99 13 e9 3d fc d3 c2 ba
       -0.02616473 0.11901409 0.11380691 -0.0014864202
000300 b5 8b 3e 3d 55 de 7a 3d 69 c7 9e 3d 71 34 bd bc
       0.046519954 0.06124719 0.07752878 -0.023096295
000310 ea d8 ce 3d 3b b5 8a 3d 0d 88 e9 3d c6 e7 3b bd
       0.10099967 0.06772848 0.11402903 -0.045875333
000320 d9 d5 4d bd f2 bc f4 3d b0 07 5d 3d 7d c8 97 bc
       -0.05025277 0.11950101 0.05396241 -0.018528217
000330 81 b4 3a 3e 7d 51 04 bc f3 7b 51 bb 38 92 c0 3d
       0.1823292 -0.008076069 -0.0031964749 0.09402889
000340 4b 26 68 3d 13 0b f7 b9 fd 21 1e 3e 53 2d bc 3c
       0.056677144 -0.00047119762 0.15442653 0.022970831
000350 0c 69 92 3d fa 48 84 bb 48 8b 6f 3c 1d 5c 3f 3c
       0.07148942 -0.00403702 0.01462061 0.011679676

model.2.weight f4 [128, 216]
000000 32 90 4b 3e d5 ad c2 3d 06 17 a1 bd a2 f7 dd 3d
       0.19879225 0.09505812 -0.078657195 0.10838248
000010 bf d7 58 3e da d3 66 be 36 cf 36 3e 71 f5 cb 3c
       0.2117605 -0.22541752 0.17852482 0.024897309
000020 ec a2 2c 3e 93 c7 fd 3d f1 7d 4c 3c 54 ae a6 3d
       0.16859025 0.123915814 0.012481199 0.08138719
000030 15 d7 13 be 33 e8 53 bd 0e 17 c5 3d 76 c1 34 3e
       -0.14437516 -0.051735114 0.09623538 0.17651924
000040 14 c8 29 bd 6d a4 19 bd c6 8f 2b bd 5f 17 e6 bd
       -0.041450575 -0.037510324 -0.04188516 -0.112349264
000050 dd 04 11 be d4 32 25 3d 7b 04 a6 3c 47 1d 87 bd
       -0.14162011 0.040331677 0.020265808 -0.06597381
000060 12 e9 4f 3e 66 03 11 be f9 09 d0 3d 6d 04 b4 3c
       0.20303753 -0.14161453 0.10158152 0.021974767
000070 1c a9 b4 3d b7 47 fd 3c 5c 1e c6 3d 8c 89 17 3d
       0.088213176 0.030917985 0.09673759 0.03699641
000080 a9 ef 0c bd 7a 6e f4 bc 02 69 13 3a d6 99 28 3a
       -0.034408245 -0.029837836 0.00056232524 0.0006431615
000090 6a dc 37 3e 5c 38 a6 bd cb 80 dd bc 32 f3 6a bc
       0.17955175 -0.081162184 -0.027038952 -0.014340209
0000a0 5f b0 2b bc 48 ef 82 3a 0b 9c 11 3d 17 67 ad bd
       -0.010479062 0.0009989524 0.035549205 -0.084669285
0000b0 45 72 a0 3c ea 43 42 bd 19 82 4b 3e 6d 12 00 3e
       0.019585738 -0.04742805 0.19873847 0.12507029
0000c0 36 e9 df bd b6 7b 2b bd 6a 8e 03 bd a3 41 97 3d
       -0.10933153 -0.041866027 -0.03211824 0.07385566
0000d0 44 b0 aa 3a a9 a4 b1 3d 84 55 2e 3c e2 44 8a 3d
       0.0013022502 0.086739846 0.010640506 0.067514196
0000e0 a8 14 58 3d ba 8b bf 3d 36 c7 3c be 49 48 51 3d
       0.052754074 0.093528226 -0.18435368 0.051094327
0000f0 49 f9 33 3e 27 d5 61 3d e3 99 3e 3e 17 7c f8 3d
       0.17575563 0.05513492 0.1861339 0.12133043
000100 a3 e8 d8 bd f6 ef 65 3d 7f a0 a1 bd 4e c0 ed bb
       -0.10591247 0.056137048 -0.0789194 -0.0072555905
000110 11 1e b5 bc 6c af 86 3e 50 e0 ff 3d 35 48 76 be
       -0.022109063 0.2630571 0.12493956 -0.24050982
000120 c5 d9 f7 3d be aa eb 3d 10 a1 0b 3e 03 56 bb 3d
       0.12102083 0.11507176 0.13635659 0.09147265
000130 c7 41 07 3e 9e 73 6a bd 71 b3 0e bd dc 17 82 3d
       0.13208686 -0.057239167 -0.034839097 0.06352207
000140 e5 d8 6a bc 4a 96 8f 3d 4c a0 b7 bd 7e b2 3f 3d
       -0.014333938 0.07011087 -0.08966121 0.046801083
000150 44 c0 ce bc 5d 41 98 bd dd 41 9c 3d c1 cd 85 3d
       -0.025238164 -0.07434342 0.0762975 0.06533385
000160 c8 80 5c 3e f9 38 29 3e 76 ad 29 3e 2b d0 19 be
       0.21533501 0.1652564 0.16570076 -0.15020816
000170 0d 80 18 3e 0b 08 f5 3c a2 08 12 be 45 07 8b 3d
       0.14892597 0.029911062 -0.14261106 0.06788496
000180 e9 75 ef 3d de 37 0f 3d ae d1 dd 3b bd e7 cd bd
       0.116924115 0.03496539 0.0067693805 -0.10053966
000190 86 65 a1 bd 8a ba 07 3e 25 af 1a bd 03 65 ad 3d
       -0.07880692 0.13254753 -0.037764687 0.08466532
0001a0 af f9 ef bb 5c 91 6c bd 5b 71 d7 3d 89 f0 29 3e
       -0.007323466 -0.057755813 0.10519668 0.16595663
0001b0 e4 12 79 3e 7e 01 1e be 04 a9 d5 3d 01 22 3d 3d
       0.24323612 -0.15430257 0.10432628 0.046175007
0001c0 e5 eb 4b 3d 49 e9 7e bc 0a e8 80 3d b2 f8 95 bd
       0.049785513 -0.015558549 0.06294258 -0.073228255
0001d0 d3 3d 36 3d ed e6 04 bd 21 27 00 3e aa 48 21 bc
       0.044492554 -0.03244679 0.12514926 -0.009843985
0001e0 3e aa 3f 3d a2 d5 0f 3e 45 b8 d8 3d 82 a0 2f 3e
       0.046793215 0.14046338 0.105820216 0.17151073
0001f0 18 f8 79 3e dc 90 70 bd c8 1b 20 3e 8d 01 a9 3d
       0.24411047 -0.0587319 0.15635598 0.08252249
000200 56 cd 33 3d 6d 9a 0f be 02 53 b6 3d a7 ed 9e 3d
       0.043896995 -0.14023753 0.08902551 0.07760172
000210 5f 63 8f 3d 3d b0 5a bd 71 18 82 3d ca 92 23 bd
       0.070013754 -0.05339073 0.06352318 -0.03993491
000220 2f 41 36 3e 2e 89 22 be bf 02 31 be 73 f3 21 3e
       0.17798303 -0.15872642 -0.17286204 0.15815525
000230 1a 59 36 3e a8 52 05 3e 9f b4 c2 3d 8d d4 31 3e
       0.17807427 0.13019812 0.09507107 0.17366238
000240 0e 67 27 3e bb 59 c3 3d e7 c0 4f 3e 71 bf 73 3d
       0.16347906 0.09538599 0.2028843 0.059508745
000250 ef 4f f3 bc 98 0d 0d 3e f0 2c be 3d 1b c5 dd bc
       -0.029701201 0.13774717 0.09285915 -0.027071526
000260 c5 f8 28 be fa 3e b3 bd eb 26 ce bd e0 4e f0 3d
       -0.16501148 -0.08752246 -0.10066017 0.11733794
000270 61 94 5c bd e7 13 c0 bd a8 ab 64 3d c6 7f eb bd
       -0.053852443 -0.09378796 0.055827767 -0.1149898
000280 f0 f3 d2 bd b2 53 29 3e 2f 7a e7 3d 13 a7 ad 3d
       -0.10300434 0.16535833 0.113026015 0.084791325
000290 03 88 90 3d c7 0c 12 3e 21 e6 16 be c7 12 f0 3c
       0.07057192 0.14262687 -0.14736225 0.029305829
0002a0 e2 ba 4a 3e 88 a8 eb 3c db 8d 8f 3d 73 23 c6 3d
       0.19797853 0.028766885 0.07009479 0.0967473
0002b0 21 a7 95 3b 69 8f 06 3d 81 f6 00 be b9 cf d2 bc
       0.0045670425 0.03285161 -0.12594034 -0.025733816
0002c0 22 f3 ca 3d 10 1e 06 3e 99 cb b6 bc 17 c0 f4 bd
       0.09909655 0.13097405 -0.02231388 -0.11950701
0002d0 00 95 13 3e e8 95 49 3e 98 2e f4 3d fc 9b 68 bc
       0.14412308 0.19686091 0.119229496 -0.014197346
0002e0 20 24 f5 bd a4 6a 62 bd 56 07 fa 3c e9 7e 55 3e
       -0.11969781 -0.05527748 0.030521076 0.20849194
0002f0 9b f1 30 3e 1a a7 78 3d fa 04 28 3d 0e fc 36 3e
       0.17279665 0.060706235 0.04102037 0.17869589
000300 85 a4 2d 3d a9 96 5f 3e 52 87 a5 bc 24 4a 47 3e
       0.042393226 0.21834816 -0.020206127 0.19461876
000310 df 5c 28 3e c6 79 f8 bd ab 51 83 3c 52 00 54 3d
       0.16441678 -0.121326014 0.016030153 0.051758118
000320 05 57 ac 3d a4 65 0e 3e 15 5f f8 3d d0 d6 e8 bd
       0.08415035 0.1390596 0.121275105 -0.11369097
000330 88 4e ca 3c 96 85 f6 bc 1d 5c 25 be 71 c8 44 3e
       0.02469565 -0.030092996 -0.1614842 0.19217087
000340 46 74 8f bd 6c c9 33 3e 58 f3 43 3d 8b 1c 31 be
       -0.07004599 0.17557305 0.047839493 -0.17296045
000350 c6 c0 22 3e e5 96 b1 bd f9 99 d4 3c 5e 10 05 3e
       0.1589385 -0.08671359 0.025952326 0.12994525
000360 f9 25 cc 3b 16 20 10 bd 97 ea 55 3d 03 9f db bc
       0.0062301126 -0.03518685 0.052225675 -0.026809221
000370 4e 2b 80 bd 80 7c c7 3c ff 82 2a 3d d3 f3 39 bd
       -0.0625826 0.024351358 0.041628834 -0.045398545
000380 4b ad c7 3b c4 14 86 bd 2f 29 0b bd 06 68 1b bd
       0.006093656 -0.065469295 -0.033974823 -0.037941
000390 0f 8f 89 3a eb 70 79 bd 02 8d 24 3d 10 e2 18 3a
       0.0010494905 -0.060898703 0.040173538 0.0005832026
0003a0 c7 60 f4 3c a7 f9 ff 3c 64 a4 e7 bc 48 ec 95 3c
       0.029831303 0.031246973 -0.02827663 0.018301144
0003b0 04 39 f7 3c b0 7e 81 bd ba 4c 68 bd be 85 39 3d
       0.030178554 -0.06322992 -0.056713797 0.045293562
0003c0 5c 62 83 bd de 84 4f 3d 26 fb 76 bd 81 08 5f 3d
       -0.06415245 0.05066382 -0.060298108 0.05445147
0003d0 04 b3 96 bc e1 13 9a 3c e2 e9 a8 bb d1 ea 20 3d
       -0.018395908 0.018808307 -0.005154834 0.03928644
0003e0 ce 56 1d bd b4 b6 b8 bb d2 e0 4d bd 10 51 cc 3b
       -0.03841286 -0.0056370143 -0.050263233 0.0062352493
0003f0 40 9e d3 bb a8 18 27 3d 96 c8 39 bd 31 54 72 3c
       -0.006458074 0.040795 -0.04535731 0.014790581

model.2.bias f4 [128]
000000 bf b2 e7 3d ee 1b 23 3c d5 12 9f 3c 96 30 85 bd
       0.1131339 0.009955389 0.01941816 -0.06503408
000010 3a 6c bd bc 97 ac 70 bc 6e 47 fd ba 30 75 d8 bc
       -0.023122896 -0.014689586 -0.0019323656 -0.026423067
000020 88 4b 7a bc 07 cc 17 3d 87 e4 74 3d 59 ce 3b 3c
       -0.015276797 0.03705981 0.059788253 0.011462771
000030 f8 7c 36 3d d4 34 3f bd af 22 86 3d 76 40 ea 3d
       0.044552773 -0.04668124 0.06549584 0.11438076
000040 44 72 80 bd 94 c4 0a 3c b9 18 0f bd be 8e 08 3d
       -0.062717944 0.008469719 -0.034935687 0.033339255
000050 a1 49 06 3d 36 22 86 3d 39 ee e6 3b f6 b1 0e 3e
       0.03278506 0.06549494 0.0070474413 0.13935074
000060 4a fe 0e bd 67 00 5a 3d af 35 25 3d fa af b4 3c
       -0.034910478 0.05322304 0.0403344 0.022056568
000070 d5 ce 89 3d 2d 42 2b bd 6f da 17 3d 9b 22 64 bc
       0.06728903 -0.041811157 0.03707355 -0.013924266
000080 be f6 0e bd 86 d0 8d bd 56 1a 3a 3d d8 42 de 3d
       -0.03490328 -0.06924538 0.045435272 0.10852593
000090 b1 51 c6 3d f8 75 44 bb 7b 0c 1a bd ab dc 1b 3d
       0.0968355 -0.0029977541 -0.03760956 0.038052242
0000a0 38 9d 80 3c fb d9 1a bd a8 85 b4 bc bb 4d 72 bd
       0.015699968 -0.03780554 -0.022036389 -0.05915616
0000b0 58 ad 57 3d b6 82 43 3d 02 da f1 3b ea 8d cb bc
       0.052655548 0.047732078 0.007380725 -0.024847943
0000c0 29 9b 50 3d 16 09 ec bc 80 44 de ba 1b 63 e3 3d
       0.050929222 -0.028812926 -0.001695767 0.11102887
0000d0 33 9d 88 bc c4 c8 35 bc 1a 37 12 bd 2d 14 c3 3d
       -0.01667652 -0.01109523 -0.03569708 0.095253326
0000e0 c5 f4 4d bc f6 4d 6f 3c 8f e9 04 bd 77 83 11 3d
       -0.012570565 0.01460599 -0.0324493 0.035525765
0000f0 b4 d2 8a bd fc a9 53 bb 52 04 56 3d d3 93 6d 3b
       -0.0677847 -0.0032297364 0.052250214 0.003625144
000100 b1 2e 0f bd b5 17 0e bd b4 3e 04 bc 09 b4 4b 3d
       -0.034956638 -0.034690578 -0.00807159 0.04973224
000110 86 0a e4 b7 32 35 d7 3c ec ae 0e 3d d7 c4 85 bd
       -2.7184618e-05 0.026270483 0.034834787 -0.06531685
000120 c5 f6 60 bd 65 e5 43 bd 3b 7b 2a 3d 3a 19 87 3d
       -0.054922838 -0.04782619 0.041621428 0.065966085
000130 8c 36 e6 bc c6 3d 15 bb 9b e2 d0 bc d4 da 7c 3d
       -0.028102182 -0.0022772416 -0.025498679 0.06173213
000140 cc 9e 86 3d b9 68 f5 3b e5 17 f4 bc 95 47 35 3b
       0.06573257 0.0074892906 -0.02979655 0.0027661074
000150 3e de fe 3c 60 1d 40 bd 8e 66 a9 bc b0 41 e5 bc
       0.031111833 -0.046903014 -0.020678785 -0.027985424
000160 24 68 65 3d da d9 dc bc b4 66 7a 3d 78 fb 36 3d
       0.05600752 -0.026959348 0.0611331 0.044673413
000170 ec fe b0 bc 74 2a 54 bd 01 75 70 3b 55 d8 40 bd
       -0.021605931 -0.0517983 0.0036690834 -0.04708131
000180 b4 bb 95 3d 25 e9 95 bc 21 7e 01 3d b3 5c 72 3c
       0.07311192 -0.018299649 0.031614427 0.014792609
000190 5e 7c 69 3d b5 15 00 bd d3 b9 4b bd 26 3d 68 3c
       0.05700337 -0.0312707 -0.049737763 0.014174735
0001a0 f3 64 9a bb 64 49 7b 3d c9 d7 88 bd a6 86 8d 3d
       -0.004711741 0.061349288 -0.06681783 0.06910448
0001b0 49 ca b1 bc b5 58 89 3d 22 23 25 3d 4f 82 2e 3d
       -0.021702902 0.06706373 0.04031671 0.04260474
0001c0 b6 d3 34 bd e0 4f 9f bc 7d 0a 04 3b e4 42 bb 3d
       -0.044147216 -0.019447267 0.0020147853 0.09143618
0001d0 73 1c 8b bc d0 f5 c9 3c 7a 09 1e 3e d8 0e 67 bd
       -0.01698134 0.024653345 0.15433303 -0.05641064
0001e0 84 1f 34 3d 61 36 f6 3c 8e 0b 8e bc 28 54 9f 3d
       0.04397537 0.030055227 -0.017339494 0.077797234
0001f0 2e b6 17 3d 43 93 86 bd 65 17 4c bd 0c e2 a0 3c
       0.037038974 -0.06571057 -0.049827 0.019639038
