Task C/reruns/best_model_total.pth (torch, 47020 bytes, 8 tensors)

model.0.weight f4 [64, 128]
000000 5f c4 93 bd 6f e0 80 3d f6 03 25 bd 1a fe 77 bd
       -0.07215189 0.06292807 -0.04028698 -0.060545065
000010 a0 84 8a 3b 10 2a 4c 3d 65 08 a9 3d 22 b6 24 3d
       0.004227236 0.0498448 0.08253554 0.040212758
000020 cc e2 85 bc 90 e8 14 3c ac d8 52 3d 26 f2 c2 bc
       -0.016343497 0.00908865 0.051476166 -0.023797106
000030 b0 70 e1 3c ba 70 99 bd ab 45 4b ba 5d b1 9c bd
       0.027519554 -0.07492204 -0.0007754217 -0.07651017
000040 00 f8 3c 3a b9 71 9a 3d e1 25 06 bd f8 15 8c 3d
       0.0007208586 0.07541222 -0.032750968 0.06840128
000050 85 be 55 3d 13 db 9f 3d c0 85 46 3c 89 b2 d5 bc
       0.052183647 0.07805457 0.012116849 -0.026086109
000060 84 9a a6 bd 05 20 1b 3d 27 8a a6 bd 33 bf 11 bb
       -0.0813494 0.037872333 -0.08131819 -0.0022239208
000070 a1 47 6f 3d c9 cf a8 3d 0f 2c 3b 3d b5 28 4d bd
       0.05841792 0.08242757 0.045696314 -0.05008765
000080 ad be a1 3c d5 14 a1 bd fa c7 c8 bb 20 b1 87 bd
       0.019744242 -0.078653015 -0.0061273547 -0.06625581
000090 eb 74 e7 ba 8d 0d 18 3d da 10 59 3d 19 cd 97 3d
       -0.0017658746 0.037122298 0.052994587 0.07412166
0000a0 aa 03 38 3d 74 1d b2 bc c0 e7 e3 3c d5 8d 58 bd
       0.04492537 -0.02174256 0.027820468 -0.052869637
0000b0 77 1b 83 bd 07 5e b3 bd fe bc 0b bd 00 b6 57 3c
       -0.06401723 -0.08758169 -0.034115784 0.013165951
0000c0 e3 6e 6c 3c e3 b9 87 3d 6f a2 9c 3d 18 e8 e7 3c
       0.014430734 0.06627252 0.07648169 0.028308913
0000d0 e4 6f 69 bd 3b 92 80 bd dc eb 25 bd a0 93 25 3d
       -0.056991473 -0.06277891 -0.040508136 0.04042399
0000e0 c0 8c cd bc a0 bc fc bc cc bd 10 3d cc cd c3 3c
       -0.025091529 -0.030851662 0.035337254 0.023901843
0000f0 c8 e6 ec bc 6d 48 9a bd aa 58 cb 3c 7f 08 98 3d
       -0.028918639 -0.07533345 0.024822552 0.074234955
000100 99 ad 95 3d e8 1c e8 3c 49 5d 2b 3d 91 75 1e bc
       0.07308502 0.028334096 0.04183701 -0.009671585
000110 cc 70 92 3c 98 75 85 bc c4 bb d0 bc 88 06 5e bc
       0.017876051 -0.016291425 -0.025480159 -0.013551362
000120 30 a5 dc 3b 4c 7d ea 3c 08 6c 5a bd 24 47 75 3d
       0.006733559 0.0286242 -0.053325683 0.059882298
000130 20 24 b2 3b 3e 77 44 3d 1b 25 86 3d 04 64 20 bc
       0.0054364353 0.04796528 0.06550046 -0.009789471
000140 e5 b8 a2 3d ea 2b 79 3d d6 25 92 bd 22 30 f8 bb
       0.07945422 0.060832895 -0.07136123 -0.0075740973
000150 92 29 70 3d 50 86 f6 3c 9e 1b 37 3d c8 03 36 3c
       0.058633395 0.030093342 0.044704072 0.0111093
000160 aa 70 2c bd a0 ef 5a 3b cc 67 3a bd 1f 52 eb bc
       -0.042099632 0.0033406988 -0.045509145 -0.028725682
000170 a9 ce 03 3c e0 b2 94 3c 98 75 38 3c c4 67 07 3d
       0.008044877 0.0181517 0.011258505 0.033057943
000180 23 e5 08 bd 07 82 8a 3d d8 1b a0 3c 30 fd 27 bc
       -0.033421647 0.06763082 0.019544527 -0.010253236
000190 e2 05 a1 bd 7f 43 00 3d 09 a8 92 3d 5f 07 b2 3d
       -0.0786245 0.03131437 0.071609564 0.08692812
0001a0 ad 92 0d 3d 98 19 db 3c eb 75 ac 3d ad c3 aa 3d
       0.03456371 0.026745602 0.084209286 0.083381034
0001b0 44 80 d0 3c df fd e9 ba 2d 54 f7 bc f2 7e e8 bc
       0.025451787 -0.0017852149 -0.030191505 -0.028380845
0001c0 05 45 87 bd 40 71 0b bb fb a5 6a bd 3d 15 4a bd
       -0.06604961 -0.002127722 -0.057287198 -0.04933666
0001d0 c0 b4 3d 3b 46 d6 53 bd 67 91 fd bc 80 20 b5 bb
       0.0028946847 -0.05171802 -0.030953122 -0.005527556
0001e0 02 cc 60 3d 44 17 b4 bc d5 fa a2 3d fb 6f b6 3d
       0.054882057 -0.02198375 0.07957999 0.08908077
0001f0 28 c5 e1 3c 84 9e 8e bc 7c cd d6 3c 0e 7a 00 3d
       0.027559832 -0.01740957 0.02622103 0.0313664
000200 1a 81 97 3d eb 6d 81 3d c4 30 09 bd d0 ee 0d bc
       0.07397671 0.06319793 -0.033493772 -0.008662894
000210 8c 1c 98 bd fe 31 2a 3c 05 25 4c bd 2a 19 6d 3d
       -0.0742732 0.010387896 -0.049839992 0.057885326
000220 76 d4 92 bd 5a 68 6c 3d 0b e3 83 3d 7f b4 a5 3d
       -0.0716943 0.057716705 0.064397894 0.080910675
000230 ec 06 4c bd 80 d2 a3 3a a6 f0 91 3d 7e c2 77 bd
       -0.04981129 0.0012498647 0.07125978 -0.060488217
000240 de d5 02 3d 49 9c 9b bd b8 43 a5 3d 8a 7a 9b 3d
       0.03194224 -0.075981684 0.08069557 0.07591732
000250 85 71 29 3d b3 12 83 3d ed 02 1c bd 44 a1 52 3b
       0.041368026 0.06400051 -0.038088728 0.0032139579
000260 39 39 34 bd d1 20 72 bd 19 eb 8b 3d a5 15 56 3d
       -0.043999884 -0.059113327 0.06831951 0.052266736
000270 fe 04 86 bc b2 52 79 3d 6b 4e 74 bd a1 bc a1 3d
       -0.016359802 0.06086988 -0.059645098 0.07897306
000280 da dc b2 bd de 85 10 3d 3f 14 ac bc a6 20 95 bd
       -0.0873353 0.035283916 -0.021005748 -0.07281618
000290 30 82 89 bd ee f8 b0 bd 57 22 9b 3d 4d 68 ee bc
       -0.067142844 -0.086412296 0.07574909 -0.029102469
0002a0 36 12 ca 3c 40 0e 02 bc 42 98 4e 3d ca 36 00 3d
       0.024666887 -0.007937968 0.050438173 0.03130225
0002b0 87 a3 33 bc 66 e7 49 3d fd 1c 67 3d ba 9f 6d 3d
       -0.010964281 0.049292944 0.05642413 0.058013655
0002c0 dc 37 20 3d d3 55 6e bd 92 8e 95 bd 60 d4 61 bd
       0.03911577 -0.058187317 -0.07302584 -0.055134177
0002d0 68 54 90 3d 4a 91 6e bd 55 a5 61 3d 7f 14 dd bc
       0.07047349 -0.058244027 0.055089314 -0.026987312
0002e0 2c 87 30 bd 62 df 63 bd 58 70 84 bd 37 19 3f bd
       -0.04309766 -0.055632956 -0.0646674 -0.046654906
0002f0 2e 15 34 3d 4e 3e 1c 3d b6 f0 99 bd 4b fd a7 bd
       0.04396551 0.038145356 -0.07516615 -0.08202609
000300 ef 88 87 3d 05 1d 65 bd 42 78 be bc ac 38 46 3c
       0.06617915 -0.05593588 -0.023250703 0.012098473
000310 36 8c 89 bd c3 17 8d 3d ca c0 ed bc b1 50 5f bd
       -0.06716196 0.06889298 -0.029022593 -0.054520313
000320 88 d7 05 bc 6c 2e aa bd 81 a1 7a 3d d1 0d da bc
       -0.008169062 -0.083096355 0.06118918 -0.026617916
000330 d8 46 20 bd 19 73 cd 3b f9 d7 99 3d 24 89 8d 3d
       -0.039130062 0.006269824 0.07511897 0.06910923
000340 dd ba 1c bd ea 0a 88 bd 42 58 ab bc 11 63 36 bd
       -0.038264144 -0.06642707 -0.020916108 -0.04452807
000350 4b c6 0e 3d be 80 6b 3b 56 fa 21 bd 48 f0 19 bb
       0.034857076 0.003593489 -0.03954538 -0.0023489166
000360 76 65 15 ba 0d 2c 95 3d aa 22 2e 3d 12 ef ab bc
       -0.0005699018 0.07283793 0.042513527 -0.020988021
000370 88 df 24 bd c1 83 22 bd 08 6f 86 b9 77 4e 74 bd
       -0.04025224 -0.03967643 -0.00025641196 -0.059645142
000380 e4 26 41 3d f5 7f 87 3d 77 a2 9a 3d a9 72 87 bd
       0.04715623 0.06616203 0.07550519 -0.066136666
000390 f5 d1 89 3d 88 aa 92 bc d2 9a 92 bd f4 52 b2 3d
       0.06729499 -0.017903581 -0.07158436 0.08707228
0003a0 d2 cf 8b bc 06 f3 85 bd 06 a3 76 bd d9 4e 81 3d
       -0.01706687 -0.06540494 -0.060214065 0.06313867
0003b0 26 06 1b 3d 32 af 34 3d f3 b8 5b bc ae 14 85 bd
       0.03784766 0.04411239 -0.013410795 -0.06498085
0003c0 02 ae 82 bd a7 a3 a4 bd 8a ab 98 3d a1 11 48 3d
       -0.063808456 -0.08039027 0.074545935 0.048844937
0003d0 4b 46 65 bd 66 4e 68 3d b6 0c 38 bd c8 4b 8d bc
       -0.05597524 0.05671539 -0.044933997 -0.01724805
0003e0 88 d9 4d bd 4a fc 63 3d b0 f5 0d 3d 42 f5 ee bc
       -0.050256282 0.055660523 0.034658134 -0.029169682
0003f0 12 e6 9c 3d ee ae 2b bd 00 8c 45 39 09 18 8f bd
       0.0766107 -0.041914873 0.00018839538 -0.06987006

model.0.bias f4 [64]
000000 f6 ee ba bc ec b3 d6 3c a4 50 ef bc e9 cc 80 3d
       -0.022819024 0.02620884 -0.029213257 0.062890835
000010 de f5 84 3d b6 22 17 3d 17 f6 55 bd 27 e0 8a bd
       0.06492208 0.036898337 -0.052236643 -0.06781035
000020 b4 ea 9d bd 9f ea 6b 3d c4 a2 99 3d 01 41 f6 3c
       -0.07710782 0.0575968 0.07501748 0.030060293
000030 b5 74 57 ba 52 dd e8 bc 67 fc 4a 3d 7a be 85 bc
       -0.000821899 -0.028425846 0.049557116 -0.016326178
000040 de 56 a7 3d 99 f2 ec bb 5e 16 10 3d 91 12 5f 3d
       0.081708655 -0.0072310683 0.03517758 0.054461066
000050 10 9f d3 3c 3b ca af 3d 76 76 01 bd 64 67 94 3b
       0.025832683 0.08583494 -0.031607114 0.0045289267
000060 2c a6 90 bd 5e 5d 43 3c f1 30 0e bd 2f bd a9 ba
       -0.07062945 0.011924116 -0.034714643 -0.0012950058
000070 d2 18 15 3d 0a 26 ae 3b 2a 7c 34 3d 88 e3 43 bd
       0.036400624 0.005314593 0.044063725 -0.047824413
000080 88 69 2f bd 02 e3 9b 3d 3a 56 5e bd f9 cc b2 bc
       -0.04282525 0.07611658 -0.05428145 -0.021826254
000090 45 42 3b bc 40 3f 6f bd 03 0a 09 3d 7f 10 94 3d
       -0.011429374 -0.05840993 0.033456814 0.07229709
0000a0 f7 94 42 3c b6 bb 96 bc 80 5a 1e bd 46 33 b3 3c
       0.011876336 -0.018400054 -0.038660526 0.021875035
0000b0 ad e0 5a 3b d0 e4 80 3b ff 54 65 3d e6 a5 04 bd
       0.0033398077 0.0039335266 0.05598926 -0.032384776
0000c0 ca c5 e3 3c c1 d5 22 3d 02 e4 5b bd c6 82 ad 3d
       0.027804274 0.039754633 -0.053684242 0.08472209
0000d0 d7 e7 7c bd 59 ba c3 bc 66 e2 fc 3a be 3f e9 bb
       -0.061744537 -0.023892568 0.0019293546 -0.0071181944
0000e0 17 7d a6 3d 1c 10 9f bc 91 1e 23 bd 8f 3a 92 bd
       0.08129328 -0.019416861 -0.039824072 -0.071400754
0000f0 72 22 58 bd 42 36 59 bd 2f 42 f1 bc 00 76 94 bb
       -0.052767225 -0.05303026 -0.029450504 -0.0045306683

model.2.weight f4 [32, 64]
000000 b0 84 7d bd e5 9e 64 3c 03 29 b2 bc 8c 63 5c bb
       -0.06189412 0.013953899 -0.021748072 -0.003362867
000010 62 e0 06 3d 05 49 e1 3d 74 fb 16 3c 2b 85 36 3d
       0.032928832 0.110002555 0.0092152245 0.044560593
000020 89 e4 a0 bd 15 bd d3 3d 84 00 7e bd e5 4a 9f bd
       -0.078560896 0.10338799 -0.06201221 -0.07777957
000030 44 94 fc bd ec 5d d1 3d cc cc 9e bd 46 81 0e 3d
       -0.12332967 0.10222992 -0.07753906 0.034791254
000040 a3 8f db bd d6 4b 68 bd b3 ef 3a 3d 53 68 ab bd
       -0.10720756 -0.056712948 0.04563875 -0.08369508
000050 e7 99 a3 bb 07 b3 35 bd 6f 93 c8 3d 1e fd a0 3c
       -0.004992712 -0.044360187 0.09793746 0.019651946
000060 e5 7f 4d bd 34 e3 b1 bd f9 f5 86 bd 4c a3 18 3d
       -0.050170798 -0.08685914 -0.06589884 0.037265107
000070 54 a6 f2 bd 1e cf 0a bd 29 3f 95 bd 5a de cc 3d
       -0.11848131 -0.03388893 -0.072874375 0.10003348
000080 8d e8 1b 3d 21 e0 8b bd b4 b4 99 bd 44 37 7f bd
       0.038063575 -0.068298586 -0.075051695 -0.062308565
000090 2c 04 bd bd d0 b8 69 3d 9b f6 a6 3d ba 10 ea 3d
       -0.09229311 0.057061017 0.08152505 0.114289716
0000a0 4d 5b b7 3d db 11 35 3c cb b0 a4 bb e7 76 15 3d
       0.08952961 0.01105162 -0.005025958 0.036490347
0000b0 19 27 be bd be a9 a7 3d 2c 84 96 bd da 40 e5 bd
       -0.09284801 0.08186673 -0.073494285 -0.1119401
0000c0 3c 56 d9 bc 67 52 83 3d 73 a5 2d bd 64 0f 25 bd
       -0.026530378 0.064122014 -0.042394113 -0.04029788
0000d0 18 91 1f bc 8a c1 36 3d 63 20 cc 3d 05 ff a6 bd
       -0.009739183 0.044618167 0.09967115 -0.0815411
0000e0 04 70 cb 3d 1d a7 b1 bd 7b 7c ee 3d b7 ff 56 3c
       0.09933475 -0.086744525 0.116448365 0.013122491
0000f0 d0 97 9f 3d 80 37 d6 bc f1 3f 6e bd ac 6a e8 3d
       0.07792628 -0.026149511 -0.058166448 0.11348471
000100 7f 36 be 3d 58 9e 8c bd 43 ee 42 3c f0 b4 e0 3d
       0.09287738 -0.06866139 0.011897626 0.10972011
000110 f2 df f7 3c e4 7b 93 3d ad 3f 2c 3c c3 61 99 bd
       0.030258153 0.07201365 0.010513228 -0.0748935
000120 83 26 fd bd e3 e0 5c bd d2 ba d3 3d 2a 26 d2 bd
       -0.12360861 -0.053925406 0.103383675 -0.102611855
000130 1f 19 46 3d 59 ae 41 bd e6 1c fd bd 7e ea 9c bd
       0.0483638 -0.04728541 -0.123590276 -0.07661913
000140 aa f2 09 bd 1b 63 f9 3d 42 4c ab 3d 4a f4 b5 bd
       -0.033678688 0.12177106 0.083641544 -0.08884485
000150 d6 9c 0c 3d 70 b3 84 3d ed ef b9 3d c6 d0 db 3d
       0.034329258 0.064795375 0.09078965 0.1073318
000160 01 be 2e bd 8f 30 a0 3d 54 e1 b2 bd 07 f7 f1 bd
       -0.04266167 0.07821762 -0.08734384 -0.11814695
000170 a0 65 db 3d 60 22 f0 3c 62 62 0a 3d fa 3f eb bc
       0.10712743 0.029313266 0.03378523 -0.02871703
000180 d1 d3 d8 bd 74 5f e9 bd 97 0d 01 bd 28 cf ee 3d
       -0.10587276 -0.11395159 -0.0315071 0.11660606
000190 92 4f f5 bd 5f 91 bd 3d 40 6d b2 bd c2 c1 8c bc
       -0.119780675 0.09256243 -0.08712244 -0.017182235
0001a0 f9 b1 ae 3d 2a 31 9f bc 42 f3 c9 3c 38 ec db 3d
       0.08530039 -0.019432623 0.024652127 0.107384145
0001b0 75 a3 9b bd ae 4c b1 3d d8 7a 53 3c 62 7f d4 bd
       -0.07599536 0.086572036 0.012907706 -0.10375859
0001c0 84 c3 b7 bd 6d 44 af 3d c4 fd 76 3c 45 e9 ab bd
       -0.089728385 0.08557973 0.015075151 -0.08394102
0001d0 4b 40 82 3d e9 7b 8e bd 8c e0 3b 3d 70 29 ac 3d
       0.06359919 -0.06957228 0.04586844 0.08406341
0001e0 22 a1 b4 bd d7 7b 00 3d 14 f9 cb bc 53 d1 0d 3c
       -0.08819796 0.031368103 -0.024899043 0.008655864
0001f0 a3 2e 33 bc 64 ce 78 bd 41 e2 c1 bd 89 8a a4 3d
       -0.010936412 -0.060743704 -0.09466983 0.08034236
000200 48 3d 52 3d 10 6c f0 bc 68 4c e8 bd 8c 30 f5 bc
       0.051327974 -0.029348403 -0.11342698 -0.029930376
000210 4a 9d 90 3d b6 8d 62 bd 4c 6c eb bd 1d 27 f7 bd
       0.070612505 -0.055310927 -0.11495265 -0.12068007
000220 cf b6 80 bd 37 38 da 3d 3b fe 42 3d 70 80 23 3c
       -0.06284868 0.106552534 0.047605734 0.009979352
000230 20 9e c0 bb 7c a0 6b 3d e2 6f 10 bd 3b 5a da 3d
       -0.005878225 0.057526097 -0.03526295 0.10661741
000240 54 1f a7 bd c5 5f 5b bd 83 87 bc bd 78 9c 66 3d
       -0.08160272 -0.05355813 -0.09205534 0.056301564
000250 c0 c7 ef bd 48 af 7e 3d ce d7 83 3d 5e 04 f8 bd
       -0.11708021 0.06217888 0.06437646 -0.12110208
000260 8e db a0 bd 74 21 96 bd 27 60 12 3d 8a 7f 8d 3d
       -0.07854377 -0.073305994 0.03573623 0.06909092
000270 04 ae 49 3d 3c 68 70 3d f7 70 bf bd 3c 67 d0 bd
       0.04923822 0.058693156 -0.09347718 -0.101759404
000280 a5 d6 ba bc dc 7c 31 3c e4 97 16 bd 15 fe ee bc
       -0.022807429 0.010832991 -0.036765948 -0.02917389
000290 fc e2 6a bd 46 56 95 3d 8b e7 04 3d 65 9f 38 bd
       -0.057345375 0.07291846 0.03244738 -0.045073885
0002a0 a2 0b c7 3d f4 be ec bd e8 b5 e8 bd cb c5 bf 3d
       0.09719016 -0.11559859 -0.11362821 0.09363898
0002b0 28 9c 35 bd 2b 70 b3 bd 2c 81 f5 bd 7a 39 b3 bd
       -0.044338375 -0.08761629 -0.11987528 -0.08751197
0002c0 69 33 b0 bd 09 7e a5 bd 92 d4 a8 3d d2 dc a4 3d
       -0.08603556 -0.0808068 0.082436696 0.08049931
0002d0 c0 06 cc bd 08 0c 91 bb e0 0f ad 3c fc 32 15 3d
       -0.09962225 -0.004426483 0.021125734 0.036425576
0002e0 24 d0 cb 3d ea 8b dd 3d 48 e4 1a bb b0 f2 ef 3d
       0.09951809 0.10817702 -0.0023634601 0.11716211
0002f0 1e 5f b3 bd 58 cb 10 bd fe f7 d6 3d 98 20 34 bd
       -0.087583765 -0.035350174 0.104965195 -0.043976396
000300 8a 78 41 3d 28 42 cf 3d 96 d0 43 bd e0 6a aa 3d
       0.047234096 0.1012004 -0.047806345 0.08321166
000310 fc af 1d bd df e4 a1 bd 1b a7 e4 bb 00 d6 1c 3d
       -0.03849791 -0.07904982 -0.0069779283 0.038290024
000320 5e 9c 05 3d 0b f5 d1 bd b0 ae 88 3d a8 2e 81 3d
       0.032619826 -0.10251816 0.06673944 0.06307727
000330 3d 7f fd b9 d2 f7 48 bc bc 20 92 bb 3f d6 a0 bc
       -0.0004835072 -0.012266116 -0.0044594686 -0.01963341
000340 06 23 a3 bd 14 b8 01 3d 8d de 5a bb d2 66 61 bc
       -0.079656646 0.03166969 -0.003339681 -0.013757424
000350 ac c5 c2 3d 58 44 2f 3d 74 49 a7 bd 27 4b 0d bd
       0.09510359 0.042789787 -0.08168307 -0.0344955
000360 af 5d 72 bc 01 47 75 bb 40 80 28 3b bc 21 83 3d
       -0.014792844 -0.0037426355 0.0025711209 0.06402919
000370 b0 31 e5 bd 20 17 5f bc 5f c2 4e bb 2d a9 36 bc
       -0.11191118 -0.013616353 -0.003154896 -0.011148733
000380 fe eb ae bb 59 4c 91 bd 79 d7 41 b9 7a 8f 4d 3d
       -0.005338191 -0.0709464 -0.00018486184 0.050185658
000390 26 22 9c 3d 61 c7 df bd a3 ee b3 bd 03 99 5d 3b
       0.07623701 -0.109267004 -0.08785751 0.0033813126
0003a0 51 9a b9 bd b4 6b 70 bd fe df be bd b9 a0 47 3d
       -0.09062637 -0.058696464 -0.09320067 0.04873726
0003b0 71 52 9f bc a4 75 33 3d 60 71 64 bc f5 ce bc bd
       -0.01944849 0.043813363 -0.013943046 -0.092191614
0003c0 6e a3 90 bb 7a 06 d7 bd 59 d6 64 bd df 14 f0 3a
       -0.0044140136 -0.10499282 -0.05586848 0.0018316767
0003d0 fe 44 9a 3c 89 17 72 bc d8 fd e2 bc d5 a4 3e bd
       0.018831726 -0.014776119 -0.027708933 -0.046543915
0003e0 dc 88 90 3d 7f 7c 5f bc e5 69 a4 3d 40 7c cf bd
       0.07057354 -0.013640522 0.0802801 -0.10131121
0003f0 6c de a4 bd 18 8b fa 3d 4e 44 f0 3d c8 6c d7 3d
       -0.08050236 0.12233561 0.11731778 0.10518795

model.2.bias f4 [32]
000000 73 78 84 3d 61 79 cd bc 4b 90 90 bd be 25 84 bd
       0.06468286 -0.025082292 -0.07058772 -0.06452511
000010 49 9f 09 bd 37 a1 c4 3d b9 d6 8a 3d ea 4f 8b bd
       -0.03359917 0.09601062 0.06779236 -0.06802352
000020 d6 82 cb bd b3 8e cf 3d 8a b7 eb bd f1 98 68 bd
       -0.09937064 0.101346396 -0.11509617 -0.05678648
000030 6f 20 dc 3d b3 88 e0 bd 2a ff d0 bd ee 07 88 3d
       0.10748374 -0.10963573 -0.10204919 0.066421375
000040 3b ce 00 bd da 97 e2 3d 58 0b a2 3d 2c 12 e1 3d
       -0.031446677 0.1106412 0.0791232 0.10989794
000050 15 de 8c 3d 20 1c df bd 40 29 a2 3b 45 16 2d bd
       0.06878296 -0.10894036 0.004948765 -0.042257566
000060 b9 56 ef 3d 9e 45 f6 3d ff 6e 0c bd f1 37 fc 3d
       0.11686463 0.12024997 -0.03428554 0.123153575
000070 70 2d 27 bd 38 5d 8c 3d bc 98 8d bd 42 e7 f4 3c
       -0.040814817 0.068537176 -0.069138974 0.029895429

model.5.weight f4 [16, 32]
000000 97 2d ae 3d 66 b9 ce bd 53 52 2a be 00 93 28 3e
       0.08504789 -0.10093956 -0.16632967 0.16462326
000010 de ef 30 bd f9 78 04 3e ac 5f a5 bb 47 fc 9c bc
       -0.043197505 0.12936772 -0.0050468054 -0.019163264
000020 0b 31 c6 3d 71 65 10 be f6 e6 15 be d6 2c 01 3e
       0.09677323 -0.14101197 -0.14638886 0.1261476
000030 0e 50 70 3c 90 cf 15 3e 39 20 3f 3d 41 ff 00 3c
       0.014667524 0.1462996 0.04666159 0.007873357
000040 10 f1 26 3d a5 9a 19 3d bf 82 9e bd 1f 5e e6 bc
       0.04075724 0.037500996 -0.077397816 -0.028121052
000050 db eb 03 be ca 2c 9e ba c8 93 bc 3d ae d2 cb bd
       -0.1288294 -0.0012067792 0.092078745 -0.09952293
000060 ea 52 c3 3d 1c c1 ce 3d 06 e2 d6 3d 2e f0 b6 bc
       0.09537299 0.100954264 0.10492329 -0.022331323
000070 ac e9 2a 3e d4 ac c3 3d 2f d6 28 be 48 22 c4 3b
       0.16690701 0.09554449 -0.16487955 0.005985532
000080 64 59 1a be ee 73 07 3e 3c 22 bc 3c 59 87 12 3e
       -0.15073162 0.13227817 0.022965543 0.14309444
000090 d5 5a 2c 3e 14 c6 b0 3d 25 36 fe bd 16 9b 30 3e
       0.16831525 0.086315304 -0.12412671 0.1724666
0000a0 0a 4c f6 3d ea 0d 2f be ec bd 33 be 82 9f 33 3d
       0.12026222 -0.17095152 -0.17552918 0.04385329
0000b0 32 5a 8c 3d 75 ee 19 be 4a 1a 27 bd 5b df 83 3b
       0.06853141 -0.1503237 -0.040796556 0.004024429
0000c0 31 44 34 bc d1 1c cb 3d 15 da 97 3d 9b fe 65 bd
       -0.011002586 0.09917606 0.07414643 -0.056151014
0000d0 f7 f7 9c 3d a1 43 92 bd 46 9e 22 be c0 d8 2f be
       0.07664483 -0.071418054 -0.15880689 -0.17172527
0000e0 35 59 19 3d 5c aa c5 bd e7 84 56 bd 6b a9 a1 3d
       0.03743859 -0.09651634 -0.05237284 0.07893642
0000f0 21 94 f2 3d e2 5c aa bb 06 97 5a bd ce 69 fd 3d
       0.118446596 -0.005199061 -0.053366683 0.12373696
000100 d5 87 04 3e a7 95 13 3d 95 cd 67 3d 68 6f c7 3c
       0.12942441 0.03603139 0.056592543 0.024345115
000110 fd 5d 2d bd 06 6a 5f bd 93 6d df bc ff 2f 29 3e
       -0.042325962 -0.05454447 -0.027273929 0.16522215
000120 e8 32 de 3d 1a fe b3 bd 1f 9e 04 be 8e 1c 66 3d
       0.10849553 -0.087887004 -0.12950943 0.056179576
000130 af af 06 3c 56 dc 48 bd 36 bd 7d 3c 7d 82 92 3d
       0.008220597 -0.049038254 0.015487006 0.07153795
000140 7b a3 19 be 38 ba bc bd ca 16 25 be d7 da 01 bd
       -0.15003769 -0.09215206 -0.16121975 -0.031702843
000150 02 c2 fc bd 4c 31 89 3d d9 05 37 bd 63 52 af 3d
       -0.123416916 0.06698856 -0.04468331 0.08560636
000160 b7 7a 31 3e 1f cd 85 bd 40 b3 d4 bd 5f 29 7f bd
       0.17331968 -0.06533264 -0.10385752 -0.062295314
000170 8e 92 4e bd a9 3c dd 3c 71 65 31 be 81 b1 d6 bd
       -0.050432734 0.027006464 -0.17323853 -0.10483075
000180 89 82 97 bd b7 ac 4c 3d a4 12 f1 3d 56 7d f5 3d
       -0.073979445 0.0499694 0.117711335 0.119867966
000190 ca 8a fd bd 99 73 2d 3e 00 86 ea 3b 93 7d f8 3d
       -0.123799875 0.16938628 0.0071570873 0.121333264
0001a0 7d 30 21 be fe 0e b3 bd 5b 12 34 be 2a 3b 20 be
       -0.15741153 -0.08743094 -0.17585127 -0.1564757
0001b0 ef 81 13 be ba 19 00 be d2 0d 9b 3b 72 85 67 3c
       -0.14405034 -0.12509814 0.004731872 0.014130937
0001c0 fe 0d e4 bb 87 5a b1 3d a9 f8 aa bd 37 8e fd 3d
       -0.006959676 0.08659845 -0.083482094 0.12380641
0001d0 3c 60 be bc b3 0b 81 bd 70 bc 16 3e 3f df cf 3c
       -0.023239248 -0.063010596 0.1472032 0.025375007
0001e0 b1 be 92 3b 1e b9 aa 3d 5d 23 bc 3d db c1 27 be
       0.0044782986 0.083360896 0.091864325 -0.16382544
0001f0 34 61 0e be 45 48 99 bc b7 46 ee bb 7e 77 1c be
       -0.13904268 -0.018711219 -0.0072716135 -0.15279958
000200 1f 54 f0 3d 79 d9 f3 3d 1a 1c 6b bd fd c4 0e be
       0.11734795 0.11906714 -0.057399847 -0.13942333
000210 11 d7 16 3d 9d f3 a8 3d 16 8f fb bd 9e 1a f4 3d
       0.036826197 0.082495905 -0.12283151 0.11919139
000220 02 8d 0e 3c 40 9e 0b 3e b8 c8 88 bd 7f c1 03 be
       0.008700611 0.13634586 -0.06678909 -0.12866782
000230 dd df 3b 3b 31 2d 15 3d 84 60 ae bd 57 32 8d bd
       0.0028667368 0.03642005 -0.08514503 -0.06894367
000240 54 e9 11 3c 26 fc 13 be f7 67 da 3d 49 07 fe bd
       0.008905727 -0.14451656 0.10664361 -0.12403733
000250 e4 c3 1c bd 9d 5b 9b bd 77 bb ea 3c 97 5d 2d be
       -0.038272753 -0.07585833 0.028653843 -0.16930233
000260 6c d2 c1 bb 52 77 1b be 99 4e 89 bd d7 47 be bc
       -0.005914977 -0.15182236 -0.067044444 -0.023227615
000270 30 d8 09 be 3a 4f c9 bb b7 37 fc 3d b9 38 30 3e
       -0.13461375 -0.0061434777 0.12315314 0.17209138
000280 25 cf 39 bd 9c 12 c5 bc d6 14 12 3e e9 ef 9e 3c
       -0.045363564 -0.024056725 0.14265761 0.019401507
000290 af b0 98 3d d3 74 14 3d 19 10 2c bd 03 8c e0 bc
       0.07455575 0.036244225 -0.04200754 -0.027410513
0002a0 d2 44 55 3c 07 43 ad 3d ca df 52 bd c0 81 00 be
       0.013016896 0.0846005 -0.051482953 -0.12549496
0002b0 cf 6e 1e 3e 3a 98 ac bd e0 ff d8 bb f6 17 bd bd
       0.15471958 -0.084274724 -0.0066222996 -0.09233086
0002c0 8d 02 33 3e 4c 8e 14 be 5d 7d 8e 3d 15 76 81 3c
       0.17481442 -0.14507407 0.06957505 0.015803376
0002d0 c2 c5 9b bd 52 19 1a 3c b9 c4 31 be 8a ae e8 3b
       -0.07606079 0.009405451 -0.173602 0.007100885
0002e0 92 71 32 3e f1 da 88 3d 72 97 9e 3d 85 7d 1d 3e
       0.17426136 0.06682385 0.0774373 0.15379913
0002f0 fc c3 cc 3d af 95 91 3d 6a 36 8e 3b ac 20 c6 bd
       0.099983186 0.07108628 0.0043399828 -0.096742004
000300 bd 17 90 3b 92 11 58 3d 24 33 02 be b1 28 1c 3e
       0.004397361 0.05275113 -0.12714821 0.15249898
000310 25 09 b5 bd ba 80 52 bd dd 51 31 be 4e 47 04 3e
       -0.08839635 -0.051392294 -0.17316385 0.12917826
000320 fa 0d 25 be bb 40 9b 3d 2c 0e b7 bd 33 df 0a 3e
       -0.16118613 0.07580706 -0.0893825 0.13561706
000330 20 0d ae bd 51 e9 08 3c 14 ca e3 3d 6e 2d 30 be
       -0.08498597 0.008356408 0.11122528 -0.1720483
000340 b6 49 08 be ec 6d 07 3e b4 29 5a 3d 06 c6 e6 bd
       -0.13309368 0.13225526 0.053262427 -0.11268239
000350 2e f1 0a be ae bf 7f 3d 56 f1 29 be 69 94 bd bd
       -0.13568565 0.06243866 -0.16595969 -0.092568226
000360 c9 87 17 be a1 bc 99 bc d1 93 1c 3e dc 63 87 3d
       -0.14797892 -0.018766703 0.15290762 0.066108435
000370 46 6d 08 be 15 8b 34 3e 88 df 20 3e ac 93 ec bd
       -0.13322935 0.1763118 0.1571027 -0.11551604
000380 45 4c 2c 3e ec b9 09 3e 5c 05 be bc 2a 3f 1f 3e
       0.1682597 0.1344983 -0.023195915 0.15551439
000390 2e 95 17 3e 7c 93 66 3d b3 c9 cd 3d 56 5d 17 3e
       0.14803001 0.056292996 0.10048237 0.14781699
0003a0 65 06 75 bd 3d 9f 42 3d ae b6 16 3e 08 72 81 bc
       -0.05982055 0.047515143 0.14718124 -0.015801445
0003b0 a6 0c d6 bd 5a 53 cd bd d3 2f 4d bd e2 af 82 bb
       -0.10451631 -0.10025664 -0.050094437 -0.003988252
0003c0 48 63 fe 3c a2 d2 68 3d 25 84 c6 3d a5 40 f1 3d
       0.0310532 0.0568415 0.09693173 0.11779908
0003d0 f4 66 15 bd 7d 48 1b be b9 8f 07 3d ec 77 0f be
       -0.036475137 -0.15164371 0.03309605 -0.1401059
0003e0 7b dc 23 3d 62 2f 31 3e ca f2 26 3e aa f5 f8 bd
       0.04000519 0.17303231 0.16303554 -0.12156232
0003f0 ab 9d b1 3d e9 96 e8 ba 48 1c dc bd 72 67 bc bd
       0.08672651 -0.001774517 -0.10747582 -0.09199418

model.5.bias f4 [16]
000000 6a f4 bd 3d 9e 89 fa 3d 71 5b 11 be 3f db f4 bd
       0.09275134 0.1223328 -0.14195038 -0.119558804
000010 14 58 e7 3d fd bc 24 be 96 e0 ac 3d 01 78 2b 3e
       0.112960964 -0.16087718 0.08441274 0.16744997
000020 a1 27 0d be 77 15 15 be 5c da 1d be 1c f7 87 3d
       -0.13784648 -0.1455897 -0.15415329 0.06638929
000030 56 0e 7f bc bd 0c d7 3a bb 76 c1 bc e4 a5 a8 3d
       -0.015567383 0.0016406995 -0.023616185 0.08234766

model.7.weight f4 [2, 16]
000000 88 38 ab 3d 26 a8 11 be ee 0c 04 bd 08 3c ca 3d
       0.08360392 -0.142243 -0.032238893 0.09874731
000010 02 48 1c bd 19 c2 f8 bd 0b 45 fa 3d 09 65 d4 3d
       -0.03815461 -0.12146396 0.122202 0.103708334
000020 ac 1d 71 be 95 d6 26 be 0a b4 08 3e 47 39 17 3e
       -0.23546475 -0.16292794 0.1334993 0.14767943
000030 0c 45 31 be d7 6a 69 be 31 11 a5 3d 2f b7 a2 bd
       -0.17311496 -0.22794662 0.080599196 -0.07945096
000040 28 78 d0 3d 5d 16 76 be cb 88 b8 3d 1c 47 51 be
       0.10179168 -0.24031968 0.09010466 -0.20437282
000050 ab e2 11 be 45 99 4e bd 21 b2 4c 3e 0a b5 6f be
       -0.14246623 -0.050439138 0.19989826 -0.23408905
000060 95 cf fb bc 35 05 dc 3d b7 a1 8e 3d 08 9f 6d bd
       -0.030738631 0.10743181 0.069644384 -0.058012992
000070 4f 17 59 be 6a 99 09 3e b4 0c 0b 3d 1c 81 7d be
       -0.21200298 0.13437429 0.03394766 -0.24756283

model.7.bias f4 [2]
000000 23 2c 9c bd 84 87 df bd
       -0.07625606 -0.109145194
