Task C/original/best_model_img.pth (torch, 556488 bytes, 4 tensors)

model.0.weight f4 [216, 512]
000000 d7 92 d5 bd 31 63 e7 3c 7d c0 0f bd b6 df bd 3d
       -0.10428398 0.02824554 -0.03509568 0.09271185
000010 ed f3 d8 bc 06 4e 57 bc b0 fc d6 3c 77 ab 91 3d
       -0.0264835 -0.013141161 0.026243538 0.071127824
000020 b0 f1 da bd 71 7f 46 3c 39 4c 19 3e fe 77 4d 3d
       -0.106906295 0.012115345 0.14970483 0.05016326
000030 5e dd 17 3d 19 1a 35 bd c0 f4 29 3d 0a fd 4a 3c
       0.037076347 -0.04421434 0.041493177 0.012389431
000040 50 af e9 3d 9f 48 35 3d b2 99 d3 bc 57 99 e8 bc
       0.11410391 0.04425871 -0.025830124 -0.02839343
000050 fa 8c 0b bd ed c8 67 3d 51 85 16 3e c5 d8 5f bb
       -0.034069993 0.056588102 0.14699294 -0.0034156304
000060 fa bc ad bd 8d 53 3f 3d 29 70 d6 bd 09 0a ee bc
       -0.0848331 0.04671054 -0.104706116 -0.02905752
000070 15 39 d0 bc 01 57 c2 3c f0 d2 8c 3b 36 7f 31 bb
       -0.025417844 0.023723127 0.0042976066 -0.002708388
000080 0d 2a 26 3d b8 35 99 3d 4b 62 c2 bd d3 98 91 3d
       0.040567447 0.07480949 -0.09491404 0.07109227
000090 4f bc 93 bd 92 34 3c 3d 62 8b fb 3a b6 16 10 3e
       -0.072136514 0.045948572 0.001919132 0.14071164
0000a0 c6 77 e0 bd a3 fa 0e 3d 92 6a 0c be 6a 0d c6 bd
       -0.10960345 0.034906995 -0.13712528 -0.09670527
0000b0 89 dc 36 bd 79 f7 a6 3d 9e 83 d5 3d c6 4b 06 3e
       -0.044643912 0.081526704 0.104254946 0.13114843
0000c0 33 47 82 3b 37 6c 13 bc 75 68 9e bc 05 1a 8d bd
       0.0039757728 -0.008997968 -0.019336918 -0.068897285
0000d0 9a ed 40 3e 2f 2c 69 3b bc 73 69 bd 94 cb 8c 3c
       0.18840638 0.0035579314 -0.05699514 0.017186917
0000e0 09 44 7d 3d 26 1b 37 3d fe 5f e5 3a e9 5d 4c 3d
       0.06183246 0.044703625 0.0017499921 0.049894247
0000f0 03 76 88 3b c5 27 1b 3c e4 b9 02 3d 67 cd 99 3d
       0.0041644587 0.009469931 0.03191556 0.075098805
000100 2c 54 d5 3c 98 03 74 bd 8e 33 b0 3d 41 c8 e4 3d
       0.026041113 -0.05957374 0.08603583 0.11171008
000110 7c 67 f6 bd 30 7c 5e bd a3 26 24 bd 84 e7 3f 3d
       -0.12031457 -0.054317653 -0.04007591 0.04685165
000120 73 ea 63 bd 0a e8 eb 3d ab f1 62 bc b7 e7 6a 3c
       -0.05564351 0.11518867 -0.013851563 0.014337472
000130 26 14 04 be 92 74 ff 3c 61 59 84 bd ab 1a c4 3d
       -0.12898311 0.031183515 -0.0646236 0.09575399
000140 7a 1c 60 bc 30 9a e1 bb 74 c2 71 3d af 58 0e be
       -0.013678664 -0.0068848357 0.059023336 -0.13901018
000150 23 0a 89 bb 4c 5a c7 bc 68 e5 36 3d 07 30 57 bd
       -0.0041821166 -0.02433505 0.044652373 -0.052536037
000160 b4 0e 72 3d 24 47 89 3d 87 53 f2 bc fa 38 01 3d
       0.059096053 0.06703022 -0.029580845 0.031548478
000170 c1 38 1b be d2 2e 00 3c 3b 1b 49 bd 40 83 e0 bb
       -0.15158369 0.007823663 -0.049098235 -0.0068515837
000180 ad 48 63 3d 80 3e 50 bd 26 a3 d8 bc 0d b9 bf 3d
       0.05548923 -0.050840855 -0.026444983 0.093614675
000190 4c 0c 7c 3d 0d b9 b2 bd 70 74 cd 3c 82 01 06 3e
       0.061535165 -0.08726702 0.025079936 0.13086513
0001a0 c5 0f 5a bc d7 18 18 bd 3d ce 4d 3c f8 b4 c6 bc
       -0.013309424 -0.037133064 0.012561378 -0.024256214
0001b0 7e 60 cd bc 29 86 95 3d 24 51 8e 3c 03 43 a9 3c
       -0.025070425 0.0730098 0.017372675 0.020661836
0001c0 3b 0b 8d 3c dd db fd bd 97 37 43 bc 09 51 9d bd
       0.01721727 -0.12395451 -0.011915109 -0.07681472
0001d0 35 f6 a7 bd 66 bd d0 bd cf 71 41 3e 99 47 af bd
       -0.08201257 -0.10192375 0.18891071 -0.08558578
0001e0 04 5c 84 bd a4 1e a3 3d bc 54 3a 3c 62 24 0c bc
       -0.06462863 0.079648286 0.011372741 -0.008553596
0001f0 3e 02 06 3e 36 51 b7 bd ce ea a4 bd 54 b8 1d bd
       0.13086793 -0.08951037 -0.08052598 -0.038505867
000200 16 42 fa bc c4 39 36 3d 17 06 21 3e 22 5d f4 bd
       -0.03054909 0.044488683 0.1572498 -0.11931826
000210 f8 ab 0f 3d e5 31 0e 3e 04 b8 f7 3c d5 e8 12 3d
       0.03507611 0.13886221 0.030239113 0.035866577
000220 33 ff 8a bd 0b 5d 89 bd a9 00 70 3c ec 29 01 bd
       -0.06786957 -0.067072 0.014648595 -0.03153412
000230 14 51 36 bd 75 94 93 bd f6 c1 87 bc bd 94 b2 3d
       -0.044510916 -0.0720605 -0.01657198 0.08719776
000240 f8 d2 bf bd df 31 7c 3c bc ad cf bd c2 64 d8 3d
       -0.09366411 0.01539275 -0.10140559 0.10566093
000250 b4 4a 33 bd 20 75 1e bd 82 2a a7 bd ad 67 fb 3d
       -0.043772414 -0.038685918 -0.081624046 0.12275634
000260 6d e7 81 3d c6 29 38 3d d6 b0 15 3c c1 78 19 be
       0.06342969 0.044961713 0.009136399 -0.1498747
000270 6f f2 15 3d 3f 6d f7 bd a3 60 67 bd 53 42 e9 3b
       0.036608156 -0.12081384 -0.056488644 0.007118502
000280 da a6 cd 3c f3 61 8b bd 07 8a cc 3c 8e ff b8 3c
       0.025103975 -0.06805792 0.02496816 0.022582795
000290 d2 68 05 3e c9 10 da ba ce 7c ce 3c 45 6e 63 3e
       0.13028267 -0.0016637082 0.025205996 0.22210033
0002a0 c0 c1 db 3d 77 32 6b bd e6 21 f9 bc 6a f4 e6 3c
       0.10730314 -0.057421174 -0.030411672 0.028192718
0002b0 37 a4 0b 3d 5d e2 75 bd d9 a7 8a 3d 6c a0 b6 bb
       0.034092154 -0.06003033 0.06770296 -0.005573323
0002c0 77 29 9c bc f5 55 3f bd d2 03 86 bd e0 5c a7 bc
       -0.01906274 -0.046712834 -0.065436974 -0.020430028
0002d0 11 ae 1b bb f8 05 2f 3d da f3 2e bd ae 59 fd bc
       -0.0023754875 0.0427303 -0.042713024 -0.030926552
0002e0 e6 bd cf bd 4f 3a 99 3c e7 5e ed 3c 7f 8e 92 3c
       -0.10143642 0.018704562 0.028975917 0.017890213
0002f0 d4 df 01 be 16 c7 33 3c d6 98 ed 3c 1f b0 47 bd
       -0.1268304 0.010972759 0.029003542 -0.048751947
000300 33 c3 bb bc ea 29 84 bd 97 5f 94 bd b1 90 17 bb
       -0.022920227 -0.06453307 -0.07244795 -0.0023127014
000310 89 cb 5e bd 3e 38 35 3c 78 0d eb bd b9 e0 d2 3c
       -0.054393325 0.011060772 -0.11477178 0.025741922
000320 80 1e cb 3c 54 93 78 bc 96 b8 bc 3d 87 67 45 3c
       0.024794817 -0.0151718445 0.092148945 0.012048609
000330 80 54 85 3d 9c 7a ab bd 38 b9 9b 3d 13 3a f4 3b
       0.06510258 -0.08372995 0.07603687 0.007453212
000340 74 95 98 3d fb 2c cb bd 55 11 41 bd 3e 58 0d 3d
       0.07450381 -0.09920689 -0.04713567 0.034507982
000350 4a b2 31 3c 05 39 89 3d 9a 6c 1d 3c 7e 1a d3 bb
       0.01084573 0.06700329 0.009608412 -0.006442367
000360 1e bb 37 3d 8e 43 ed 3c ee 3e c0 3d 42 51 81 bd
       0.044856183 0.028962877 0.09387003 -0.06314327
000370 6a d5 24 3e 22 26 ee 3c 38 10 16 bc bb c5 8f bd
       0.16097036 0.029070918 -0.00915914 -0.07020136
000380 a9 b0 be bd cb 50 a4 bd 10 cf 99 bc 91 62 ca 3d
       -0.09311039 -0.080232225 -0.018775493 0.09882081
000390 1c c0 44 3d 9c 3f 8f 3c 67 a6 01 be c1 c9 d8 3d
       0.048034772 0.017486386 -0.12661134 0.105853565
0003a0 de 65 65 3b e3 d4 e5 3d 57 33 fc 3d c9 40 a7 bd
       0.0035003345 0.112222455 0.1231448 -0.08166654
0003b0 4d 2f 84 bd b8 24 ad bd 3d 2c 6d bd d2 9c 18 bc
       -0.064543344 -0.08454269 -0.057903517 -0.009314733
0003c0 4f 83 18 bc 64 3a cf 3c f6 dc eb bb b5 ad 50 3c
       -0.00930865 0.025296398 -0.0071979715 0.0127367275
0003d0 63 4b b6 3b 52 b4 05 3e c0 94 d3 bd b3 80 09 bd
       0.005563186 0.13057068 -0.10331106 -0.033570003
0003e0 d1 63 03 be f9 7e 37 3c 57 b6 c8 bd dd a3 0f 3e
       -0.12831046 0.011199706 -0.098004036 0.14027353
0003f0 5a 54 06 3e 3d 1c b1 3d f7 15 c8 3c a9 95 b0 3d
       0.13118115 0.08647964 0.024424536 0.086222954

model.0.bias f4 [216]
000000 c6 01 13 3e b5 8b 8c 3d e9 7a 15 3e be 59 0d 3e
       0.14356145 0.068625845 0.14597668 0.13803765
000010 7d 66 7f 3d e8 c3 ee 3d 38 c2 9a 3d e2 f6 2d 3e
       0.0623536 0.1165846 0.075565755 0.1698871
000020 56 0d e4 3d f8 b8 46 3d 14 ce 77 3d b5 1b f2 3c
       0.11135356 0.048516244 0.060499266 0.029554227
000030 c9 af e5 bb 36 d3 a4 3d ab 48 c6 3d ac d0 00 3e
       -0.0070094806 0.08048098 0.09681829 0.12579602
000040 10 e5 e1 3d 7f f6 02 bc 8e b3 36 3d 84 4e 65 3d
       0.11030018 -0.00799334 0.04460483 0.05598308
000050 1b ce 1c bd 2d ff a3 3d 80 21 06 3e 92 f3 e9 3d
       -0.038282495 0.08007655 0.13098717 0.114234105
000060 46 65 d1 3d b1 df 13 3e 9f a7 0c 3d e9 ef 06 3e
       0.102243945 0.144408 0.034339543 0.13177456
000070 f0 5e 35 3e ab 87 89 bb 80 61 fe 3d 01 fb 04 3c
       0.17711997 -0.004197081 0.124209404 0.008116485
000080 40 b0 40 3d 1d 03 19 3d 9c 76 94 3d ed 11 d7 3d
       0.047043085 0.037356485 0.072491854 0.10501466
000090 17 8c 74 3d f0 21 c7 3d e9 1e 49 bc ed c1 74 bc
       0.059703913 0.0972327 -0.012275436 -0.014938814
0000a0 1b 40 f1 3d 08 31 ce 3d c0 c8 16 3d 62 be 33 3e
       0.11779805 0.10067946 0.036812544 0.17553094
0000b0 57 a9 2f 3e d6 03 5c bc 91 98 56 3d 4b 0b 1d 3e
       0.17154442 -0.013428649 0.052391592 0.15336339
0000c0 48 e2 b2 3d 5c 90 a5 3d 71 1b ab 3d 26 a3 f5 3d
       0.08734566 0.08084175 0.083548434 0.11994009
0000d0 87 e3 e2 3c 2e 77 5b 3d 3f 7d 3a 3c b0 79 4e 3e
       0.027696384 0.053580455 0.0113824 0.20163608
0000e0 d4 3b 2d 3d c0 af e5 3a 94 95 dd 3d 3e 59 e5 3d
       0.042293385 0.0017523691 0.108195454 0.11198662
0000f0 d9 47 28 3d 85 c3 10 3e 12 ff 62 3d 41 b2 35 3d
       0.041084144 0.14137085 0.055419035 0.04435945
000100 c4 ad e4 bc e5 35 03 3e d9 01 96 3d fb 20 9a 3d
       -0.02791489 0.12813528 0.07324571 0.07525822
000110 85 86 ac 3c 18 b7 85 3d fe f1 11 bc 5a 5d 12 3e
       0.021060238 0.06529063 -0.008907793 0.14293423
000120 d1 c3 0b 3e 4f ed 96 3c 42 d2 81 3d fe 8c 12 3d
       0.13648917 0.018423704 0.063389316 0.035778992
000130 c7 9e 1c 3e 6c 55 06 bd 11 62 ca 3d 85 75 06 3d
       0.15294944 -0.03279631 0.09881986 0.03282692
000140 ce d5 fa 3d fd f4 2e 3e df 0f 0a 3e ec 64 d5 3c
       0.12247811 0.17085643 0.13482617 0.0260491
000150 a0 07 3f 3d 8e 80 a7 3d 05 51 96 3d 43 e7 0f 3d
       0.04663813 0.08178817 0.07339672 0.035132658
000160 3c ac 9a 3c d5 14 a7 3c ca 90 05 3e 09 c8 05 3e
       0.018880956 0.020395676 0.13043514 0.13064589
000170 7a 0a c0 3d 86 1d 02 3d 5e 18 1c bc 9e 4b cf 3d
       0.09376998 0.031766437 -0.009527294 0.10121845
000180 85 59 e5 3c 67 0f 0a 3e 1b 47 b2 3d b7 a9 86 3b
       0.027996788 0.13482438 0.087049685 0.004109587
000190 00 83 f0 3d c2 2d 91 bc b7 dd d4 3d 5e 4a dd bc
       0.11743736 -0.017722014 0.10393851 -0.027013
0001a0 d3 45 27 bd d3 1a 86 3d 2f 3b 2b 3c 13 a0 13 3e
       -0.040838074 0.06548085 0.010451122 0.14416532
0001b0 57 fb b8 3d f7 fb 0e 3e 21 d2 03 3d 1c 1c ad 3d
       0.09032314 0.13963304 0.032182816 0.08452627
0001c0 f1 00 17 3e ab 4c c3 3d bd 15 40 3d 06 81 ef 3d
       0.14746453 0.09536108 0.04689573 0.11694531
0001d0 83 4d 12 3e 16 1a 7c 3d ab 1d 65 3d 65 85 03 3e
       0.14287381 0.061548315 0.055936497 0.12843855
0001e0 68 c5 3e 3e 91 ee c1 3d 98 c7 61 3e 18 68 e3 3d
       0.18629992 0.09469331 0.22048795 0.11103839
0001f0 b4 12 0d bd c9 7a 7a 3d fb f8 20 3e e6 ea 4f 3d
       -0.034441665 0.061152253 0.15719979 0.050761126
000200 2e 9f fa 3d 8c 46 f5 3d f1 f9 8d 3d 31 55 a7 3d
       0.12237392 0.119763464 0.06932438 0.08170546
000210 7b 46 f1 3d ff a3 af 3d 34 69 87 3d b5 dd a7 3d
       0.11781021 0.08576202 0.06611863 0.08196584
000220 7a 0d 58 3e 2e c7 75 3d 0e 3c 3b 3e 7b ca 65 3c
       0.21098891 0.060004406 0.18284628 0.014025326
000230 a1 b6 16 3e 4d a7 b1 3c cb 17 38 3e 88 94 7f 3d
       0.14718105 0.02168622 0.17977826 0.06239751
000240 00 82 5d 3d 18 1d 43 3e 23 59 08 3e 1d ad 75 3d
       0.054079056 0.19054067 0.13315253 0.059979547
000250 93 75 aa 3d 59 ca a0 3d 79 34 e3 3d 9c 91 99 3d
       0.08323207 0.07851095 0.11093993 0.07498476
000260 30 dc 0b 3d ec eb 32 3e 71 11 0f 3e db 6b 37 bc
       0.034145534 0.1747281 0.13971497 -0.011195148
000270 a7 01 d8 3d 41 a6 d2 bc af 62 19 3d 46 a6 42 3d
       0.1054719 -0.025714042 0.037447628 0.047521852
000280 71 05 dd 3d 51 e5 69 3d 0f 6f 2a bc 56 21 d4 3d
       0.107920535 0.05710346 -0.010402455 0.10357921
000290 12 a5 98 3d bf 7e ba 3d 3b 18 f4 3d 8a a0 24 3e
       0.0745336 0.09106206 0.11918684 0.16076866
0002a0 d5 f1 d1 3d 44 51 52 3e da 8b f8 3d 02 46 06 3e
       0.10251204 0.20538813 0.121360496 0.13112643
0002b0 d7 f2 c5 3d b5 9d 0e 3e fa db d3 3d 0e 8f ec 3d
       0.09665459 0.13927348 0.103446916 0.11550723
0002c0 df 6a 0e 3d 24 5b 1f 3d 7c c9 16 bd c4 4f 86 3d
       0.03476989 0.038905278 -0.036813244 0.06558183
0002d0 69 6f 8d bc 02 2b 38 3e 37 c9 8d 3c 37 1a 2f 3e
       -0.017265039 0.17985156 0.01730786 0.17099844
0002e0 27 10 c4 3d e6 9e 87 3d 37 bb 42 3c cb db ce bc
       0.09573393 0.06622104 0.011885456 -0.02525129
0002f0 94 80 24 bb 6f ad 8f 3d ec 8d 2b 3c b8 60 65 3d
       -0.0025101053 0.07015502 0.0104708485 0.05600044
000300 76 b2 0a 3e 32 1b 2d 3e 66 1f 17 3e d3 1e 51 3d
       0.1354464 0.16904905 0.14758071 0.051054787
000310 e2 0d 1c 3e e2 cc 89 3d b3 d3 ac 3d 13 8e 8e 3d
       0.15239671 0.067285314 0.08438816 0.06960692
000320 0c e7 3d bd 66 56 af 3d 65 30 10 3e d0 59 08 3d
       -0.04636292 0.08561401 0.14080961 0.033288777
000330 9e ac a2 3d 1d 5c 7d 3c 04 22 3b 3e cd a0 9a 3d
       0.0794308 0.015463856 0.18274695 0.075502016
000340 0d 70 cd 3d e2 d3 eb bc 63 39 80 3d 40 70 c0 3c
       0.100311376 -0.028787557 0.06260946 0.023491025
000350 bd e1 7e 3c c2 b8 ec 3c 81 61 86 3d 0a 62 2f bd
       0.01555675 0.028896693 0.06561566 -0.042818107

model.2.weight f4 [128, 216]
000000 31 ca 57 3d aa b4 7d bc 18 8f fd bc 59 ad 1d 3c
       0.05268306 -0.015484968 -0.030952021 0.009623849
000010 cf 95 82 3d e6 53 8d bd 63 1a 8f 39 7f f8 39 bc
       0.0637623 -0.06900768 0.00027294745 -0.01135075
000020 06 71 12 bd 61 d0 b0 3c 0c 69 5a 3d be fb c1 bc
       -0.03575232 0.021583738 0.053322837 -0.02367961
000030 0a 03 6f bd 3a 7a 31 bd af 97 6f bd 07 e9 10 bc
       -0.058352508 -0.043329455 -0.058494266 -0.008844621
000040 7d 01 64 bd 66 b9 67 bd 8b 3b 14 3d 51 16 7c 3b
       -0.05566548 -0.056573294 0.036189597 0.003846545
000050 18 69 04 3d 21 56 18 bc 41 01 42 bd cc 9e d2 ba
       0.032326788 -0.0092978785 -0.047364477 -0.0016069054
000060 0d 63 98 3a 69 52 0c bc f8 30 e4 bc d4 f6 95 3c
       0.0011626199 -0.00856457 -0.027855381 0.018306173
000070 c8 e2 ba bc 45 26 80 3d f4 6b a1 3c ae de 69 3d
       -0.022813216 0.06257299 0.019704796 0.05709713
000080 f7 7a 7d 3c 91 9a bc bc 9f e0 64 bd c8 94 c4 bc
       0.015471212 -0.023022922 -0.055878278 -0.023996726
000090 65 ff ef 3c f7 eb 7e bd 6b d6 e5 ba 83 8a cf bc
       0.029296586 -0.062236752 -0.0017535215 -0.025334602
0000a0 3f d5 da bc 7a 78 69 bd f6 d2 d8 3c e8 7c 24 bd
       -0.026713012 -0.05699966 0.026467782 -0.040158182
0000b0 07 af 4d bd 48 22 42 bc 30 13 00 3d 71 4a 03 3d
       -0.050215747 -0.011848994 0.0312683 0.032053415
0000c0 6d b5 8e bd 3f 5b 7c bd 0f 3b 32 3d 8f f9 86 bd
       -0.06968198 -0.061610457 0.043513354 -0.06590568
0000d0 49 a8 42 bd db 01 77 3d 04 2d 72 bd 92 9f 56 bd
       -0.04752377 0.060304504 -0.05912496 -0.05239827
0000e0 8f 98 59 bc d5 b1 11 3d 74 c5 d7 bc 6a be 2c 3d
       -0.013281002 0.035569984 -0.02633927 0.04217378
0000f0 ac 57 2c 3d 5d 5d 0e 3d 4b 84 5f 3c 56 3a c9 3c
       0.042075798 0.034757007 0.013642381 0.02456395
000100 24 84 3f bd 28 e2 8d bc c1 29 83 bd 62 4d 0f 3a
       -0.04675688 -0.017319754 -0.06404448 0.0005466548
000110 a9 c2 13 3d a4 61 3d 3d 29 88 59 3d 3a 19 25 bd
       0.036074314 0.046235695 0.053108368 -0.04030726
000120 b0 23 31 3d cd 01 83 bd 70 4d 80 bd 03 23 42 bd
       0.043246925 -0.06396828 -0.0626477 -0.04739667
000130 fe 29 04 3d 9e 57 aa bc 6a 83 39 3b cb 01 2f 3d
       0.03226661 -0.020793732 0.0028307089 0.04272632
000140 cc fe cd 3c 2e f3 5f bd 53 bd 83 bd 03 43 41 3d
       0.02514591 -0.054675274 -0.06432595 0.047183048
000150 96 f2 3e 3d 3e b9 55 bd 70 53 8d 3d af ac 2d bd
       0.046618067 -0.052178614 0.0690068 -0.042401012
000160 7e a4 8b 3d 33 e7 96 3d e3 ce fb bc e5 51 20 bd
       0.06818484 0.073683165 -0.0307383 -0.0391406
000170 46 05 bc 3c 2e 57 80 bd 4b 4f 5d bd 7b 9d cc bc
       0.022951733 -0.06266628 -0.054030698 -0.024977436
000180 47 53 06 bd a1 75 f6 bc 6c 07 82 bc 2c 71 70 3d
       -0.032794263 -0.030085387 -0.01587268 0.05870168
000190 f0 e3 64 bd cb e5 b4 bc 67 6f d5 bc 73 6d 88 3d
       -0.05588144 -0.02208223 -0.026054097 0.06661501
0001a0 c0 63 31 3b 93 0a d0 ba 36 d6 64 bd 6e 93 08 3d
       0.0027067512 -0.0015872292 -0.05586835 0.033343725
0001b0 b6 14 04 3d 0c 20 87 bd d7 60 f7 3c 6c a9 0c 3d
       0.032246314 -0.06597909 0.030197544 0.03434126
0001c0 0b b4 67 3d d7 80 cb bb 3e 20 87 3b c0 9a 61 bc
       0.056568187 -0.0062104273 0.0041237166 -0.013769805
0001d0 cd b9 9d 3a a1 96 91 bd ea eb 15 bd 7f f0 80 3c
       0.0012033522 -0.07108808 -0.03660194 0.015739677
0001e0 a9 32 a9 3c 6e 3e 8a ba c5 70 22 3d cd bd 88 3d
       0.02065404 -0.001054717 0.039658327 0.066768266
0001f0 2b 86 c0 3c 28 92 87 bd 21 1c 08 bd 87 e6 4b 3d
       0.023501476 -0.06619674 -0.03322995 0.049780395
000200 1a 83 e6 bc 6f 4d 2a bd 3c 46 e7 3b 7a d8 83 bc
       -0.028138686 -0.041577753 0.007057933 -0.016094435
000210 5a 3d 82 3d d7 18 11 3c 93 f0 59 bd 2c 6c 76 bc
       0.06359358 0.00885602 -0.053207945 -0.015040439
000220 e6 8f b0 3c 75 b7 22 3c d1 75 7e bd d9 ac 3f 3d
       0.021552991 0.009931435 -0.062124077 0.0467957
000230 a7 54 6b 3d 7c b8 8b bc aa c1 54 bc 1b 74 78 3d
       0.057453778 -0.017055742 -0.012985626 0.0606576
000240 bf 91 22 3d 6f ff 32 3b 6c 78 4c 3d 08 16 80 3d
       0.039689776 0.0027312895 0.04991953 0.06254202
000250 e1 b4 67 3d e4 80 6e 3d ac 69 7c bd 74 c3 48 3d
       0.056568984 0.05822839 -0.061624214 0.049014524
000260 fb 9c 2e bd e1 c6 30 3d d4 38 38 bd 10 d8 d9 3c
       -0.042630177 0.043158416 -0.04497607 0.026592284
000270 db f3 15 bb e9 20 88 bd e3 57 8c 3b 75 9c f5 bc
       -0.0022880945 -0.06646902 0.004282938 -0.029981831
000280 70 bd 14 3d 3e a4 61 3d 7d fb 53 bd a3 ea 7f bd
       0.036313474 0.055088274 -0.05175351 -0.062479626
000290 23 e1 e3 3b c4 a9 b7 3c c0 10 38 bd d5 9a e9 bc
       0.0069543286 0.022419818 -0.04493785 -0.028516212
0002a0 78 63 0f 3d 9f 16 60 3d 0e ce 8a bd 18 33 16 bd
       0.03500697 0.054709073 -0.06777583 -0.03666982
0002b0 fb 38 da bc 4a 09 40 3d 6a cf 3b bd 10 77 1e bd
       -0.026638499 0.04688386 -0.045852102 -0.038687766
0002c0 b5 a5 29 bd 9f 8a 88 3c b0 91 d8 bc 4a 93 81 bd
       -0.041417796 0.016667662 -0.026436657 -0.06326921
0002d0 d8 67 69 3d bf 8c 64 3c 51 da e7 39 fb 9f 25 bb
       0.0569838 0.013949572 0.00044222412 -0.0025272358
0002e0 f3 bc 77 bc e1 f1 25 bd 87 b9 b1 bc b4 d5 6d 3d
       -0.015120733 -0.040513877 -0.021694912 0.05806513
0002f0 a6 74 0b 3d 86 c2 99 bc 75 28 3c bd 25 d6 c4 3c
       0.03404679 -0.018769514 -0.04593702 0.024027893
000300 5e eb df bc c3 1c 74 3d 36 2d 57 bd 7c 9b 5d 3d
       -0.027333912 0.05959774 -0.05253335 0.05410336
000310 51 76 29 3d 69 62 f3 bb af 30 52 bd c2 4d e9 3c
       0.0413726 -0.007427503 -0.05131596 0.02847946
000320 ae 1a 6d 3d d7 a6 a9 3c c1 c3 b0 3b c8 26 c3 3a
       0.05788677 0.020709438 0.0053944294 0.0014888877
000330 00 b4 e3 bc 2a cb db 3c 1d 6e 83 bd 41 f9 8d 3d
       -0.027795792 0.026830275 -0.06417487 0.06932307
000340 76 fd 37 3d b0 06 59 bc 8c 08 43 bc aa 41 e2 bc
       0.044919454 -0.013246223 -0.011903893 -0.027619202
000350 47 6a e2 3c 9e 3a 1a 3d 3a 33 74 3d 74 5d f8 3c
       0.027638568 0.037653558 0.059619166 0.030318
000360 a5 e3 1f bb 79 19 1b bd 4f 89 35 3d 72 41 1c bd
       -0.0024397161 -0.03786609 0.0443204 -0.03814835
000370 1e 39 90 bd 3f b5 8b 3c da d1 ef 3c c6 31 66 bd
       -0.07042144 0.017054198 0.02927487 -0.05619981
000380 88 25 95 bb 37 93 85 bd 73 e6 14 bd 22 9a 51 bd
       -0.004551593 -0.0652222 -0.036352586 -0.051172383
000390 00 d9 a9 39 8b f1 8b bd 50 96 f5 3c bf 48 1d bc
       0.0003239587 -0.0683318 0.029978901 -0.009599864
0003a0 7b 09 b4 3c 6a a4 9b 3c de 58 0a bd de e1 83 3c
       0.021977177 0.018999297 -0.033776157 0.016098913
0003b0 04 39 f7 3c ee 68 7f bd 6b df 85 bd 36 77 17 3d
       0.030178554 -0.062355928 -0.06536754 0.036978923
0003c0 9d 94 93 bd 28 f5 33 3d e3 f1 83 bd 8e 4b 33 3d
       -0.0720608 0.04393497 -0.064426206 0.043773226
0003d0 8b 61 00 bd 98 01 91 3c 6e f0 a7 bc 64 9e 0b 3d
       -0.031343024 0.017700955 -0.020500388 0.0340866
0003e0 97 08 11 bd dc 36 b7 bb 26 69 6d bd 46 7a 0f 3b
       -0.035408583 -0.0055912565 -0.057961605 0.002189295
0003f0 54 4c f3 bb 39 fc 06 3d 5d 15 49 bd 2d 2a 3f 3c
       -0.0074248705 0.032955382 -0.04909264 0.01166777

model.2.bias f4 [128]
000000 f9 23 85 3d f0 84 63 3b 5b a0 c4 3c 5b 18 80 bd
       0.06501002 0.0034716688 0.024002245 -0.062546454
000010 c0 a3 c1 bc 3b af f5 bc 48 ef f5 3b e8 5e 0f bd
       -0.023637652 -0.029990783 0.007505331 -0.03500262
000020 88 4b 7a bc e6 75 22 3d 2b 3d 82 3d 5a c0 f4 b9
       -0.015276797 0.039663218 0.06359323 -0.0004668262
000030 72 5c 39 3e 04 76 74 bd 7e ae 7c 3d 25 0d 54 3d
       0.18101671 -0.05968286 0.061689846 0.051770348
000040 5a 66 7f bd a5 a0 4a 3c 08 69 e3 bc 37 18 02 3d
       -0.06235347 0.012367402 -0.027760044 0.031761374
000050 8b 17 2e 3d 3a a5 99 3d f0 17 de 3a 26 b7 a7 3d
       0.04250292 0.075022176 0.001694439 0.0818923
000060 c7 51 1d bd 50 34 18 3e 3a dd 4f 3d 36 d7 7e 3d
       -0.038408067 0.14863706 0.050748087 0.06221696
000070 8c 88 95 bb 32 43 e8 bb 8c 61 cf 3d c9 e2 9a 3d
       -0.004563397 -0.0070880884 0.101260275 0.07562787
000080 1a 2e 23 bd 63 24 a0 bd 6c 73 65 3d d9 2d f8 3d
       -0.039838888 -0.0781944 0.056018278 0.1211812
000090 25 d2 9b 3d 79 46 62 bc ec 40 38 bd 2f 0c 97 3c
       0.07608441 -0.013810747 -0.04498379 0.018438427
0000a0 7d 13 de 3c 85 33 49 bd a8 85 b4 bc de 9b 7f bd
       0.027108902 -0.0491214 -0.022036389 -0.062404506
0000b0 3c 48 03 3e 73 56 80 3d c7 4e fc ba 1f 57 14 bd
       0.12820524 0.06266489 -0.0019249552 -0.036215898
0000c0 bd ce fd bc 3b 2d d1 bc 80 44 de ba 03 38 05 3d
       -0.03098237 -0.025534263 -0.001695767 0.03252412
0000d0 96 3e 9c 3d 07 80 a9 bc 41 05 2d bd 18 d0 6f 3d
       0.07629125 -0.020690931 -0.04224134 0.058548063
0000e0 b7 b4 28 3d 6b 47 8a 3d 5c 03 ff bc 2f 2e 04 3d
       0.041187968 0.06751903 -0.031129532 0.032270607
0000f0 b0 f9 91 bd 1a 33 54 b9 08 c9 51 3d 10 23 a4 bb
       -0.07127702 -0.00020236932 0.05121711 -0.0050090626
000100 ba e4 01 bd f4 6d 86 3c 72 b1 3f 3c c9 eb 90 3d
       -0.03171227 0.016409852 0.011700021 0.070762224
000110 6f a4 8f bb 4f 78 f6 3c d0 77 17 3d 72 64 84 bd
       -0.0043836157 0.030086664 0.036979496 -0.06464471
000120 5f 17 4f bd c9 d8 37 bd 9a c0 a7 3b b9 2e d6 bc
       -0.050559398 -0.044884477 0.0051193954 -0.026145326
000130 94 70 0f bd c0 2b 2a bb 08 9e 5e bc 8c 12 72 3d
       -0.035019472 -0.0025966018 -0.013587482 0.05909972
000140 3e 90 45 3e 3d 16 36 3b cc eb 30 bd f4 59 98 3b
       0.19293305 0.002778425 -0.043193623 0.004649395
000150 bb cd 7e 3d 3d 79 79 bd 5e 91 c0 bc 51 55 e4 bc
       0.06220792 -0.060906637 -0.023506816 -0.027872713
000160 e3 20 6e 3d 3d 7a 09 bd 25 f3 67 3d 27 26 ad 3b
       0.058136832 -0.03356384 0.056628365 0.005284089
000170 1f 1f 63 bc f6 a3 3c bc 25 eb d4 3a 5b 27 55 bd
       -0.0138624 -0.011513701 0.0016244395 -0.052039485
000180 3b aa f0 3c dd ac 2c bd 23 ae d0 3c 57 35 66 3d
       0.029378047 -0.042157043 0.02547366 0.056203213
000190 61 b8 40 3d 60 fb 12 bd d3 0b 4d bd ac c0 18 3c
       0.047050837 -0.03588426 -0.050060105 0.00932328
0001a0 37 ce c2 bc c6 a7 0b 3e 87 fe 8d bd b5 cc 18 3d
       -0.023779972 0.13638219 -0.06933313 0.0373046
0001b0 ea 8e 55 3d 14 19 20 3d 24 ea 34 3d fd 4c 5f 3d
       0.052138247 0.039086416 0.044168606 0.05451678
0001c0 76 f2 57 bd 60 da d7 bc 75 97 46 bc ef 97 f4 3c
       -0.052721463 -0.026349247 -0.012121071 0.029857604
0001d0 08 2e 2d bc 21 72 66 3c ae e2 bb 3d 26 2f 62 bd
       -0.010570057 0.014065296 0.09174095 -0.055220746
0001e0 22 25 26 3d 29 13 c8 3c f7 e9 07 bd 55 cd 9f 3c
       0.040562756 0.024423199 -0.03318211 0.01950709
0001f0 93 1d f1 3c 0f cf 80 bd 74 ba 6c bd 9f 74 71 3c
       0.029433047 -0.06289493 -0.057795003 0.014737277
