Task C/original/best_model_text.pth (torch, 556496 bytes, 4 tensors)

model.0.weight f4 [216, 512]
000000 b5 88 f4 3d fe 35 a1 3d 05 7c 03 bd df 6a b0 3d
       0.11940137 0.07871626 -0.032100696 0.08614134
000010 7c fc b2 bc fe 34 fe bb 23 eb 7d bd c8 4f 96 bc
       -0.02184891 -0.007757782 -0.061991822 -0.01834859
000020 92 29 13 be 5c 61 bc bd 13 38 6d 3d a0 83 81 bd
       -0.14371327 -0.09198257 0.057914805 -0.063239336
000030 68 0b 8e bd fe d8 85 3c c2 ee ec ba cb b4 49 bc
       -0.06935769 0.016338822 -0.0018076526 -0.012311171
000040 d4 c6 85 bd 67 40 e1 bb c6 ff 05 bd 07 d8 72 3d
       -0.06532064 -0.0068741324 -0.032714628 0.05928805
000050 d2 da 8f bd 97 8c 82 3c ad fb 3b 3d 7c f6 f7 bb
       -0.070241585 0.01593618 0.045894314 -0.007567225
000060 53 e6 a1 bc d8 cf 3a bd 2f 82 81 3c a8 f1 b2 bc
       -0.019763147 -0.04560837 0.015809147 -0.021843746
000070 82 a0 6e 3d ff f8 24 bd c7 da 40 3d de 08 a8 3c
       0.05825854 -0.040276524 0.047083642 0.02051204
000080 33 b7 48 3e 28 da d4 bc 11 88 83 bb f7 4b 40 3d
       0.19601135 -0.025982931 -0.004014023 0.046947446
000090 c1 dc ef b9 d7 98 16 3d 02 09 8c ba 13 f1 68 3c
       -0.00045750107 0.036766853 -0.0010683837 0.014217633
0000a0 5a 38 a5 3d 1b 91 51 bd a7 1d 0a 3c b4 43 03 3d
       0.08067389 -0.051163774 0.008429921 0.03204699
0000b0 07 19 63 3d ab 89 55 bd a6 99 99 3c f8 9f b2 bc
       0.05544379 -0.052133244 0.018750023 -0.021804795
0000c0 fb ba 3f 3d 5d 19 ee bc 75 61 a4 3c ea a8 c1 bd
       0.046809178 -0.029064829 0.020066002 -0.09456046
0000d0 66 f3 22 bd b2 9b 1b 3d 82 37 71 bd 71 dc a4 3d
       -0.039782904 0.03799028 -0.058890827 0.08049858
0000e0 ec 6c 13 3b 3b 98 40 bd 2c db d7 3d 2a 21 42 3d
       0.0022495342 -0.04702018 0.105398506 0.04739491
0000f0 0b 89 21 3d 1d 35 92 bd 24 32 cb 3d ad 23 32 bb
       0.039437335 -0.07139037 0.09921673 -0.002718191
000100 f6 3d d7 bc 5e 06 02 be 6c 47 20 3d 17 16 c7 bd
       -0.026274662 -0.12697741 0.039130613 -0.0972101
000110 09 b4 4c 3b f6 0b e1 bb 36 3b 86 3b f1 03 ca bd
       0.003123524 -0.006867881 0.004096414 -0.09864033
000120 c7 dc 22 3d 1a 3a 30 3d 4a 5f 04 be ec b3 41 be
       0.03976133 0.04302416 -0.12926975 -0.18916291
000130 80 da 9e 3c ac 91 5a bd b7 d5 3f bd d5 43 75 3d
       0.019391298 -0.05336158 -0.046834674 0.059879143
000140 93 63 11 bc d2 a6 a8 bd 1e 9b 4d bc 2e ef ce bc
       -0.008873838 -0.082349434 -0.01254919 -0.025260534
000150 83 56 5d 3d dc 55 9b 3d f9 4b b5 3d b0 72 24 bc
       0.054037582 0.07584736 0.08852381 -0.010037109
000160 ed 42 0e 3d 43 2f 98 3d 7e 7f 88 3d a4 88 a7 3d
       0.034731794 0.074308895 0.06664942 0.08180359
000170 2f 62 05 3c 6c e2 8b 3d d0 2b 07 be b9 c2 94 bd
       0.008141085 0.06830296 -0.13200307 -0.07263703
000180 22 f1 a1 bc a1 1c c8 3c 60 91 26 3c 76 d8 13 be
       -0.019768301 0.024427714 0.010166496 -0.14438042
000190 1d 80 a5 bd 9a b7 46 bc 13 60 a0 3c 2e 04 c7 bd
       -0.08081076 -0.012128735 0.019577062 -0.09717594
0001a0 3d 33 b3 3c b6 5b ad 3d 78 78 32 3d bc 2d 37 3d
       0.021875018 0.08464758 0.04357192 0.04472135
0001b0 ec 21 75 bc 3e 9a 63 bd 68 65 10 3e 3e 11 bf 3d
       -0.014961701 -0.05556702 0.14101183 0.093294606
0001c0 38 9f 28 3d 40 33 3d 3d 8c f7 37 bd 38 ba 8f bd
       0.041167468 0.046191454 -0.044913813 -0.0701794
0001d0 1c 3b 24 bc 18 68 2c 3d e4 96 a9 bd 37 3a a9 bc
       -0.010023858 0.04209146 -0.08280733 -0.020657642
0001e0 59 fc 49 bd dc 50 33 3c 92 1a c7 3d 10 c1 08 bd
       -0.049312923 0.010944571 0.09721865 -0.033387244
0001f0 f6 1a 8f 3b d6 13 36 bd 7c 69 83 3c 40 6a 81 bd
       0.0043672277 -0.04445251 0.01604151 -0.06319094
000200 45 47 57 3c 2f 90 01 bd 9a 64 da 3d 87 37 c3 ba
       0.013139551 -0.031631645 0.106637195 -0.0014893868
000210 a6 5b 24 bd e4 b4 3d 3d fa 18 00 bd cb a3 da bc
       -0.040126465 0.04631509 -0.03127382 -0.02668943
000220 3b a1 cd bc 88 00 dd bd 78 65 18 3d 8d d1 14 be
       -0.025101295 -0.10791117 0.037206143 -0.14533062
000230 2a ae 1f 3d 0f 03 09 3d 73 93 c2 bc 44 23 09 3d
       0.038984455 0.033450183 -0.02375195 0.033480898
000240 0a 19 2b 3c 4d de 38 3d 5b 4d c4 bc 45 9f c4 bc
       0.0104429815 0.045133878 -0.023962667 -0.024001727
000250 be ad 97 3d 0c da de bd 0c 1b 5d 3d 01 f9 9c bd
       0.074061856 -0.10881433 0.053980872 -0.07664681
000260 80 6b 04 bd 5c 00 fb bc d5 cf d8 3c cd 56 76 bd
       -0.032329082 -0.03063982 0.02646629 -0.060141373
000270 4d ed c9 3a 52 b4 89 bd 9a 52 9d 3c 3f 43 bf bd
       0.0015405804 -0.067238465 0.019204427 -0.09338998
000280 b3 be f4 3c 0e b8 35 3c 68 ac 93 3d 15 70 34 be
       0.029876089 0.011091245 0.07210618 -0.17620881
000290 81 a2 4c bd d5 9a 8b bc a2 14 6d bd 43 f4 ce 3d
       -0.049959663 -0.017041603 -0.057881005 0.10105183
0002a0 84 b0 c8 bc 72 e5 e0 bd 72 58 e0 bd 14 9a 96 bd
       -0.024498232 -0.10981263 -0.109543696 -0.07353607
0002b0 78 23 fc bc 82 00 be bd 0c 0f c5 bd 65 28 e4 bb
       -0.030778632 -0.092774406 -0.096220106 -0.006962823
0002c0 a8 2c fc bd 8e b5 80 3d 6e 66 8b 3b cc bd 10 be
       -0.12313205 0.06284629 0.004254154 -0.14134902
0002d0 6a ee fd 3d 1f 12 61 3d 2d f5 3b 3d 41 f9 bc bb
       0.123989895 0.054948922 0.045888115 -0.005767018
0002e0 29 01 00 3d 8b 51 c6 3c 7e b0 87 3b 2c c1 0a bd
       0.031251106 0.024208805 0.0041409126 -0.03387563
0002f0 82 cf 53 bd 44 02 62 bd ea 70 7a 3d 94 80 0b 3d
       -0.051711567 -0.055177942 0.06114284 0.03405817
000300 ca c3 06 bd 29 4a 5a 3e ae f6 a5 bd 1b 38 a9 bc
       -0.032901563 0.21317352 -0.08103691 -0.020656636
000310 97 ee fb 3b 32 b0 e0 bd b8 3b 75 bd c3 e6 79 3d
       0.0076883542 -0.109711066 -0.059871405 0.061011087
000320 bf 77 c5 bd 91 e6 39 3d d6 b0 9a 3d f8 13 f7 3d
       -0.096419804 0.0453859 0.0755326 0.120643556
000330 11 2c c2 3b 04 b3 64 bd 33 7e c8 3b dc da 9d 3d
       0.0059256633 -0.055834785 0.0061185597 0.0770776
000340 e7 77 95 bd e6 14 83 3d 8a fd a5 3d d6 e0 8b bc
       -0.0729826 0.064004704 0.08104999 -0.017074984
000350 f6 c7 96 bd d2 a1 9c 3d c1 61 75 3c 58 bf ad 37
       -0.07362358 0.07648052 0.01497692 2.0712308e-05
000360 a9 fd 11 3d 85 07 dd bc 5f 83 0d bc ce 80 cc bc
       0.0356423 -0.026981125 -0.008637278 -0.024963763
000370 c4 d1 b8 3c 26 60 8d 3d aa 94 18 3d 2d 7c 9f 3d
       0.022560962 0.069031045 0.037251152 0.077873565
000380 45 e0 a2 bd 20 d1 c3 3d ba 24 6a bd c4 9d 01 3e
       -0.07952932 0.09561372 -0.05716393 0.12657839
000390 39 eb f0 bc 1e 75 0d be 09 ce 26 3d 9c b8 8b 3d
       -0.029409038 -0.13814208 0.040723834 0.06822321
0003a0 47 82 d0 bc 44 27 1c 3d b1 67 64 3d 26 fb 9e 3c
       -0.025452746 0.038123384 0.05576295 0.019406866
0003b0 d1 96 06 3d e9 de 8a bc b6 dc 13 3d 17 2a a9 bc
       0.032858673 -0.016951995 0.03609916 -0.020649953
0003c0 f6 d7 05 3d 66 ec 18 3c e0 44 97 bd 6b 31 dd bd
       0.03267666 0.0093337055 -0.07386184 -0.10800441
0003d0 7f 29 09 be 28 fc f7 bc 40 64 98 3c b9 8f f4 bb
       -0.13394736 -0.030271605 0.01860249 -0.007463422
0003e0 17 c9 30 3d ac ea 60 3d 74 a2 c2 bd cd 95 bb bb
       0.043160524 0.0549113 -0.09503642 -0.0057246448
0003f0 63 4e dd 3d c8 5f 12 be 1d 2b 73 3c e1 f3 ab 3d
       0.10805967 -0.1429435 0.014841822 0.083961256

model.0.bias f4 [216]
000000 cf 3a 11 3d 16 e7 35 3d 9c c1 62 bd 4a 74 74 bc
       0.035456475 0.044409834 -0.05536042 -0.014920304
000010 0b 6b 58 3c 14 f2 7e bc e1 d8 3d bc 34 cd 87 bd
       0.013209115 -0.015560646 -0.0115873525 -0.06630936
000020 6b 55 67 bd 6f 0d e1 3c 31 e4 d8 bc 3f e3 49 3d
       -0.056477945 0.027472226 -0.026475998 0.049288984
000030 d8 5b 10 bc a4 6e 2a 3d 0a 7a 3d 3d 90 ba f3 3b
       -0.00881096 0.04160942 0.046258964 0.0074380115
000040 d4 f8 10 3c 9f 81 7c 3d a0 d0 39 bd d2 b4 5e 3d
       0.008848388 0.061647054 -0.045364976 0.054371662
000050 b2 37 a5 3d 73 04 b6 3c ad 8c 4b 3d fa 16 e2 bb
       0.08067264 0.022218918 0.049694706 -0.0068997117
000060 7c 6e 69 bb 67 3d 5d 3d 17 4e 95 bc 52 58 25 bd
       -0.0035618832 0.054013636 -0.018225713 -0.040367432
000070 bf a1 c7 bc a2 e6 aa 3c d0 5e 0f 3d 04 9a b6 3d
       -0.024369119 0.020861927 0.03500253 0.08916095
000080 e7 d3 ca 3d 8f d1 18 3c 11 0d 66 3c f5 72 dc bc
       0.099036984 0.009327306 0.014041201 -0.026910285
000090 9b 61 3a 3d 4d a0 e7 3c 05 63 55 bd b5 db a9 3b
       0.04550324 0.02827468 -0.052096386 0.005183662
0000a0 79 38 ce 3c af 99 b3 3c 38 af 08 3d 55 4d 39 3c
       0.025173413 0.021923868 0.033370227 0.011309941
0000b0 93 72 d8 bb 69 78 1c 3b ca 0b 69 bd 98 09 e8 3c
       -0.006605455 0.002387548 -0.05689601 0.028324887
0000c0 37 ac 02 bd b8 ec dc 3b 60 64 11 3d 0d 86 e9 3a
       -0.031902518 0.0067420863 0.035496116 0.001781644
0000d0 01 f0 71 3c ac b5 13 3d a2 4b 2a bd 17 ee a5 3c
       0.014766694 0.036061928 -0.041576035 0.020255132
0000e0 74 89 79 3d 7a e0 e2 bc 0a aa c0 3d 76 50 20 3b
       0.0609221 -0.02769493 0.094074324 0.002446202
0000f0 ed 05 02 3c 7f 26 e6 bb fb d0 28 3d 3e 80 16 3d
       0.007935983 -0.007023632 0.041214924 0.036743395
000100 47 df dd 3b dc df 08 3d 56 3b 4f 3c 9d d7 2a 3d
       0.0067710015 0.033416614 0.012648424 0.04170953
000110 09 70 b7 3c a4 44 01 3d 37 aa 77 3d 47 e7 b6 39
       0.02239229 0.0315596 0.060465064 0.0003488606
000120 95 01 18 3d c3 b2 72 bc ac 62 6d 3c 36 c6 d5 b9
       0.037110884 -0.014813128 0.014488857 -0.00040774205
000130 34 37 b2 bc 51 c1 85 3d 2c af de 3c 18 87 5e 3b
       -0.021754839 0.06531013 0.027183138 0.0033955034
000140 39 b0 58 3d 0a 99 25 3a 94 33 a8 3c ce 91 c2 ba
       0.052902434 0.0006317055 0.020532407 -0.0014844479
000150 a6 82 4b 3d 48 12 b5 3c f3 83 32 bd 6c 4e 7b bb
       0.049685143 0.022103444 -0.043582868 -0.0038346304
000160 0f 54 2f 3d 80 67 ae bb 5a 4f 9d bc 35 6d ac bc
       0.042804774 -0.0053223968 -0.019202877 -0.021048168
000170 1b b1 56 bc 50 f5 d2 3c 22 d3 4d 3d 39 42 41 3d
       -0.013103749 0.02575174 0.05025018 0.047182295
000180 0f d6 ae 3c df 41 8d 3c 4a 9f 9e 3c 54 a8 28 3d
       0.021342305 0.017243324 0.019363064 0.041176155
000190 a5 6f 5a 3c fa ce d6 bb f7 e0 0c 3d 83 be 07 bb
       0.013332282 -0.0065554352 0.03439423 -0.002071292
0001a0 f6 2a 94 bc 92 38 04 3d f6 f5 cd bb 0c f5 8f 3c
       -0.018086892 0.032280512 -0.0062854243 0.017572902
0001b0 4a d7 28 bd 0d 1e c0 3b 4f 43 f7 bc 92 49 78 bd
       -0.04122094 0.0058629573 -0.030183462 -0.060617037
0001c0 70 9a eb 3c 33 f6 26 bd 4e 25 f6 3c 82 80 24 3d
       0.028760165 -0.040762138 0.030047085 0.040161617
0001d0 3e fa eb ba 4f f4 b6 3b d0 7d 46 3d 2b ad 81 3c
       -0.0018003655 0.005583323 0.048459828 0.015829643
0001e0 a3 14 fc 3c 74 7d a2 bc 6a 99 d1 3c b5 de 8c bc
       0.03077156 -0.019835211 0.025585849 -0.017196039
0001f0 b2 32 46 bd 5d 48 03 3d 87 e2 d5 3c 65 6f 48 3c
       -0.04838819 0.032051433 0.026108993 0.01223359
000200 b8 8d 35 bc 73 04 cf 3c 57 60 12 3d ee fe ac 3b
       -0.011081152 0.025270676 0.035736408 0.0052794134
000210 89 77 03 3c ce 88 00 bd 18 bb 9b 3d 77 85 51 3c
       0.008024105 -0.031380467 0.07604045 0.012788168
000220 82 18 29 bc 49 7f 61 3b ca e7 dc bc 9a 2a 48 3d
       -0.0103207845 0.0034408143 -0.026965994 0.048868753
000230 cb 34 0c 3d 26 5f da bb c5 8c fb bc 9f f9 fc 3b
       0.034230035 -0.0066641746 -0.030706773 0.007720187
000240 7f 8b b7 bc 2e c9 2d 3d 21 46 c7 3b 6a d1 1b 3b
       -0.022405384 0.042428188 0.006081358 0.0023775944
000250 75 a6 26 3d 9c f0 10 3c 34 ea fe bc 8a cc fa 3c
       0.04068609 0.008846428 -0.031117536 0.03061511
000260 fb f6 c1 3c e3 1d 8f bc e7 f8 ef 3c 66 b6 ba bc
       0.02367734 -0.017470306 0.02929349 -0.022792052
000270 b0 f4 83 bb b0 92 18 3d 12 83 ed 3d 9f 48 e2 3b
       -0.0040269718 0.037249267 0.11597265 0.0069056298
000280 7b e4 a8 3d f2 f6 4b bc 92 86 3f 3d 09 23 ff bc
       0.08246704 -0.012449013 0.046759196 -0.031144636
000290 0b 76 85 3c 3a 23 1a 3d 11 15 a8 3c fd 00 8e 3c
       0.016291639 0.03763125 0.020517858 0.017334456
0002a0 75 2a 76 3c 85 b2 23 3d c3 fc c0 bc 0a cb 69 bc
       0.015024771 0.03996517 -0.023558026 -0.0142696
0002b0 09 a7 c7 b9 07 c8 a9 bc 47 30 c3 3c bf b4 3c ba
       -0.0003808069 -0.020725263 0.023826731 -0.0007198564
0002c0 4c 50 12 bd 9e 76 02 3d 70 52 97 3c 44 e2 80 bc
       -0.03572111 0.031851403 0.018471926 -0.015732892
0002d0 87 68 df 3c 13 d8 70 3d bb 9f 37 bc 7c c3 cb 3c
       0.027271522 0.058799814 -0.011207516 0.024873488
0002e0 db c7 41 3d 98 46 ef bc f4 ad 43 3c 70 f0 ac 3c
       0.047309738 -0.029208466 0.011943329 0.021110743
0002f0 13 e3 8d 3b ff e2 04 bc fb 02 cf 3d 11 eb 6d bd
       0.004330048 -0.008110761 0.1010799 -0.058085505
000300 0e 46 df bc 8e 5c 88 bd 92 31 b2 bb 96 90 04 3d
       -0.027255084 -0.066582784 -0.005438038 0.03236445
000310 11 a2 48 bc 46 9d 00 bd b3 b8 25 3c 83 af 77 3d
       -0.012245671 -0.031399988 0.0101148365 0.060470115
000320 fc 9b 16 3d 70 00 21 3c e3 02 fc 3c dd 04 0b bd
       0.036769852 0.009826764 0.030763095 -0.033940185
000330 49 ac d6 bc bc d1 25 3d 7a 67 85 bb 5a 58 80 3d
       -0.026205199 0.04048322 -0.0040711733 0.06266852
000340 65 62 34 3d 9a da dd bb c2 f4 26 3d 4f 86 b7 bb
       0.04403915 -0.006770444 0.040760763 -0.0056007276
000350 ab af 52 3d 9b fb e3 3c 7f e6 4d 3d 4c 55 97 3d
       0.05143706 0.027829936 0.050268646 0.07389316

model.2.weight f4 [128, 216]
000000 1d 7b 74 3d 66 84 dd 3b b3 5c 9c bc 40 b5 c2 3c
       0.059687722 0.006760168 -0.019087171 0.023768067
000010 72 97 a2 3b 7f 3e f4 bb 32 35 cb bb cd 1a f2 3c
       0.0049619013 -0.007453739 -0.0062014097 0.029553795
000020 b5 b9 19 3c e5 f4 34 bd e2 a3 07 3d c5 a5 35 bd
       0.009382655 -0.044178862 0.033115275 -0.044347543
000030 17 f1 67 bd f7 06 45 3d 57 2e f5 3c 74 98 41 3d
       -0.056626406 0.048102345 0.029929323 0.04726453
000040 34 53 b5 3b 2c 36 a0 bd 46 dc 9e 3c df f7 81 bd
       0.0055336 -0.078228325 0.019392144 -0.06346106
000050 6f 33 c8 bc 69 ee c6 3c d1 ff ba bb 45 d5 99 bd
       -0.024438588 0.024283605 -0.005706765 -0.07511381
000060 0c db cc bc a1 ee 37 3d 7b f9 fc 3c 10 c6 65 3d
       -0.025006793 0.04490531 0.03088068 0.05609709
000070 b4 0c 4d bd 18 cd 63 3c 43 64 bb b8 20 b0 af bd
       -0.050060943 0.013903879 -8.93553e-05 -0.08578515
000080 d3 91 3c 3c f9 99 4d 3d 3d cd a8 3c 2e 84 6b 3c
       0.011509377 0.050195668 0.020605678 0.014374776
000090 2e bd 3f bd ed b8 17 3c 9c 2f ed 3b a8 4d 49 bd
       -0.046811275 0.009260398 0.0072383415 -0.049146324
0000a0 43 c3 9c bd 86 4a 94 bd 62 22 85 bd 09 2b 7f bc
       -0.07654431 -0.07240777 -0.065006986 -0.015574225
0000b0 b0 45 b3 3c 5d e9 a0 bd 66 0a 10 3d b6 10 3d bd
       0.021883816 -0.078570105 0.035166167 -0.046158515
0000c0 05 a9 62 bd ea f8 89 ba 8d 99 98 bb 1e f2 46 bd
       -0.05533697 -0.0010526453 -0.0046569766 -0.048570745
0000d0 ee a2 b0 bc ed 07 c5 39 a9 ed c9 3b b9 bb 13 bd
       -0.021562066 0.00037580673 0.0061623645 -0.0360677
0000e0 56 b6 5f bd 56 f2 19 bb 0e fa cf 3c d4 e4 6a bd
       -0.05461725 -0.002349039 0.02538779 -0.057347134
0000f0 39 8f 8b bd 85 94 db bb d5 c0 14 b9 c4 52 1b 3d
       -0.06814427 -0.0067010545 -0.00014186215 0.03792073
000100 0e 45 03 bc 03 a8 f9 bc e2 1b e6 bb 57 87 40 bd
       -0.008012069 -0.030475622 -0.007022367 -0.04700407
000110 c1 52 1e bd 85 37 26 bd 4f 81 7e bc 45 cd 04 3d
       -0.03865314 -0.04058029 -0.015533759 0.032422323
000120 f1 14 82 bc c9 80 a0 bc 02 d5 57 3d 79 16 53 bc
       -0.015879126 -0.01959266 0.052693374 -0.012883776
000130 a1 3c dc 3b 71 f7 b5 bc 2d 69 5a 3d 32 0b d9 bc
       0.0067210947 -0.022212716 0.05332296 -0.026494596
000140 64 de a8 3a 45 fe 97 bd 9d 8d cf bc 79 41 91 bd
       0.001288366 -0.07421545 -0.025336081 -0.07092566
000150 ca a4 6d bd cb 1e bf 3c c0 a9 49 bc b1 25 0c 3d
       -0.058018483 0.023330113 -0.012308538 0.034215633
000160 f6 cc 2d 3d b0 6d 30 bd a4 0d 6c bd 2f 41 13 3d
       0.042431794 -0.043073356 -0.057630196 0.035950836
000170 39 30 d3 3c 0b 87 7e bd 70 4f 33 bd a4 dc 35 bc
       0.02577983 -0.062140506 -0.04377693 -0.011099968
000180 0b 5e 49 3d 5c 36 1c 3c d0 5a 37 3c 1d b8 63 bc
       0.049161952 0.009534445 0.011191085 -0.0138988765
000190 de 62 1d bd 28 17 7b bd 28 b4 44 bc 9e 06 fd 3c
       -0.038424365 -0.06130138 -0.012005843 0.030886944
0001a0 36 ca ce 3c dc 86 93 bd 4c a1 44 3c 75 d9 41 3d
       0.025242906 -0.07203457 0.012001347 0.047326524
0001b0 18 b0 28 3c a0 21 96 3c c9 ad c4 3b 08 84 84 3d
       0.01029589 0.01832658 0.006002162 0.064704955
0001c0 50 9f 50 bd 90 dd 5b 3d 4f fb aa bd e1 84 f0 bc
       -0.050933182 0.053678095 -0.083487146 -0.029360237
0001d0 5a 6a 4b bd 63 26 a1 bd fb 65 4e 3b 5c 73 76 bd
       -0.04966197 -0.0786865 0.003149389 -0.06016861
0001e0 73 29 97 bc d1 f1 31 bd 1a 37 81 bb b5 9c 5b bd
       -0.018452382 -0.043443505 -0.003943336 -0.053616244
0001f0 56 be 75 3c 09 b4 a2 3b cd 18 59 bd 67 16 21 3d
       0.014998993 0.0049653095 -0.053002167 0.039328005
000200 f3 89 fa bc 91 0c 19 3d c9 a2 31 3b d8 3f 1c 3d
       -0.030583357 0.0373655 0.0027105084 0.038146824
000210 db 09 b2 3c 6b bb d6 3c c8 f5 9e 3b b4 f6 10 bd
       0.021733215 0.026212415 0.0048510768 -0.035391524
000220 6e 51 6c bb 6b 45 0c bd 47 06 8a bc 15 3e 5b bd
       -0.0036059278 -0.03424589 -0.016848696 -0.053526003
000230 a7 ab 3c bd 7b 17 46 bd 50 67 a6 bc ba 45 91 3c
       -0.046062138 -0.048362236 -0.020312935 0.017733444
000240 72 13 78 bd 53 41 e8 bc 8f ed 9e bc 08 12 81 3d
       -0.06056542 -0.028351462 -0.019400386 0.06302267
000250 c3 f3 f9 3c 1a 0c 52 3d af b5 ac bd 09 ff 50 3b
       0.030511742 0.051281072 -0.08433091 0.0031890294
000260 18 c4 35 3b 2e 35 4e 3d d1 74 a5 3b 6a 2d ae 3b
       0.002773529 0.050343685 0.005049326 0.0053154724
000270 a5 d1 6c bd 3e 2e 2d bd e6 74 24 bc 43 a9 7d bd
       -0.05781712 -0.042280428 -0.010037636 -0.061929
000280 9e b8 67 bd 83 a8 3b 3d ad e4 08 bd 21 85 89 bd
       -0.05657255 0.045815002 -0.033421207 -0.067148454
000290 a6 0d 66 bb ff 1f 45 bd 3c dd 16 bd b1 3d 7e bd
       -0.003510335 -0.048126217 -0.03683208 -0.062070552
0002a0 85 9e 06 3d 88 3b 6c 3d 9f ac 61 3c 74 23 0f 3d
       0.03286602 0.05767396 0.013774066 0.03494592
0002b0 a7 63 3a 3d 68 5d 00 3d 4e 21 52 3d 71 68 f1 bc
       0.045505192 0.03133908 0.051301293 -0.029468747
0002c0 c4 84 f1 3c f4 92 c2 3b ef 63 07 3c 7c 37 f7 3c
       0.029482253 0.0059379283 0.008263572 0.030177824
0002d0 5e 76 8f bd cb 97 5c bd 39 f0 3a bd 42 e0 02 bd
       -0.070049986 -0.0538557 -0.04563925 -0.03195215
0002e0 1d d7 2c bd 4f 55 1d bd f6 23 40 bc f5 7b 08 bd
       -0.042197336 -0.038411435 -0.011727324 -0.03332134
0002f0 09 ea da bc 8c 2b 18 3c a0 1d b8 bc 24 a2 01 3d
       -0.026722925 0.009287726 -0.022475064 0.03164877
000300 24 cd 42 bd f3 d1 ce 3c d5 e9 32 bd a0 fe 0e 3d
       -0.04755892 0.025246596 -0.04368003 0.034910798
000310 3b a3 5b 3d b8 c1 1e bd 87 0d 63 3d 22 38 a1 bd
       0.053622466 -0.038758963 0.055432823 -0.078720346
000320 ab 51 3c 3d 72 7c 07 3d 48 79 a2 bc 6a 32 75 bc
       0.045976322 0.033077665 -0.019833222 -0.014965633
000330 3e a4 32 bd 47 77 4d bd 6a 55 c7 3c 18 32 50 bd
       -0.043613665 -0.05016258 0.02433272 -0.050829023
000340 d5 8f a8 bc a1 cc 6d bd 94 db 84 bc d3 6d 33 3c
       -0.020576397 -0.058056477 -0.016217984 0.010951477
000350 f3 ca 42 3d fc 51 a3 3c a9 43 da 3c 5d 88 8b bd
       0.04755683 0.019936554 0.026643591 -0.068131186
000360 39 83 fd 3c ea fa 3b bd c3 50 e4 3b 10 3c 11 3c
       0.03094636 -0.045893587 0.0069676354 0.008864418
000370 d6 09 5f bc a9 51 60 bc b9 eb d9 bc 14 db 2f bc
       -0.013613185 -0.013691344 -0.02660166 -0.010733385
000380 46 4b c5 bc 64 44 bd bc 5c 1a 83 3d fb 5c 6c bd
       -0.024083745 -0.0231039 0.06401512 -0.05770586
000390 cc f7 c7 bc fd 38 91 3b d7 73 b7 bc f0 f5 b8 3c
       -0.024410151 0.0044318424 -0.022394104 0.02257821
0003a0 0a 24 00 3d 0d d0 88 bd 10 c9 49 bc 0d ca f0 3b
       0.03128437 -0.066803075 -0.012316003 0.007348305
0003b0 fd eb 5e bd e2 03 37 bd e7 de 7e 3d a2 2a 25 3d
       -0.054424275 -0.044681437 0.062224295 0.04032386
0003c0 b0 11 27 bb ee 7f 9a 3c a1 e2 52 3d d6 a7 af bc
       -0.002549272 0.01885983 0.05148566 -0.021442335
0003d0 c2 e0 21 bd 98 d0 87 3d dc 7c 5c bd 6a ac 43 3d
       -0.039520986 0.06631583 -0.053830013 0.04777185
0003e0 e7 f2 61 bc 2d f6 66 bd b5 77 d2 bc 75 14 24 bd
       -0.013790823 -0.056387115 -0.025691846 -0.04005857
0003f0 79 2c 0c bd 70 41 71 bd 26 4f 86 bd 0e a8 37 bd
       -0.0342221 -0.058900297 -0.06558065 -0.044838004

model.2.bias f4 [128]
000000 6a a2 8d bd bb 9b a0 bc e0 28 65 3b d5 a0 1e 3c
       -0.06915744 -0.019605508 0.003496699 0.0096819
000010 13 57 85 3d 6c 06 ec 3c b3 2a 4f 3c 14 90 13 3d
       0.06510749 0.028811656 0.012644458 0.036026075
000020 4e 92 18 bd 7d a3 90 bd 3c 0b 85 bd 53 65 04 3d
       -0.037248902 -0.07062433 -0.064962834 0.032323193
000030 8f d4 c3 3d b8 e5 9c bd b2 8c d7 3c fa c2 60 bb
       0.09562027 -0.07661003 0.026312206 -0.0034295903
000040 99 c2 c7 3c bf d1 71 3c e7 4b 7c 3d 81 bd 57 3d
       0.024384784 0.01475948 0.061595824 0.05267096
000050 ca a3 cf 3c 2c 32 82 3d 09 3f f1 3b 53 36 ca 3a
       0.025346655 0.06357226 0.0073622507 0.0015427567
000060 82 03 71 3d dd 6c 0d 3e aa a5 96 bd 05 63 e2 3b
       0.058841236 0.1381106 -0.07355817 0.0069087767
000070 f9 c4 d3 3c 90 f6 ad 3c 1d 55 a9 3d fb 55 14 3d
       0.02585076 0.021235734 0.08268187 0.03621481
000080 34 f6 74 3d 6c 50 7f bd 1a 1c 98 3c 4e eb d5 3b
       0.05980511 -0.062332556 0.018568087 0.0065282946
000090 dd 84 82 3c ef cf 89 3c 45 df 20 bc 0a 47 88 3d
       0.015932495 0.016822783 -0.009818857 0.066541746
0000a0 a7 a4 3d bc 00 60 e8 3b 40 c1 44 bb 5f 31 3d bd
       -0.011574901 0.007091522 -0.0030022413 -0.046189662
0000b0 fa 33 06 3e 2f 0b d0 3c 3a 7d 71 3b 5a 0b 03 bd
       0.13105765 0.025395958 0.0036848322 -0.031993248
0000c0 f5 52 cf 3c d2 e6 f0 bc 8c 9a 5c bc 47 12 d2 3a
       0.025308112 -0.029406939 -0.013464581 0.0016027176
0000d0 e5 cf 85 3c 2e 10 16 bd 5f 27 54 3d 19 79 26 bd
       0.016334483 -0.036636524 0.05179536 -0.04064283
0000e0 59 51 82 3d 49 f7 1f bb 39 57 4e 3d ca 75 74 3d
       0.06363172 -0.0024408868 0.05037615 0.059682645
0000f0 6e 8f c7 3c 0e 19 c2 3c da e9 06 bd 66 86 43 3d
       0.024360385 0.023693588 -0.032937862 0.047735594
000100 45 04 52 bd c4 71 ed 3d 6a ec 04 bb 65 17 67 bc
       -0.051273603 0.11593965 -0.0020282515 -0.014104699
000110 f7 cc 0c bd 5c 0e 72 bd 73 7d 18 bd 88 e7 72 3d
       -0.034375157 -0.059095725 -0.037229013 0.059302837
000120 be d1 8f bd 12 be b0 bb 1c 69 be 3c c5 75 4c bc
       -0.07022427 -0.005393752 0.02324348 -0.01247925
000130 92 fa 36 3b a0 a3 71 3c 70 66 a7 bb 74 75 37 bc
       0.0027920348 0.014748484 -0.005108647 -0.011197437
000140 af 9e 6f 3c 67 38 eb 3c 9e f6 b7 bb c5 75 84 3c
       0.014625235 0.028713418 -0.005614116 0.016169438
000150 5f dd ab 3c f1 bb ed 3b 7d 95 b9 bc 4c 7c 31 bd
       0.020979581 0.0072550704 -0.02265429 -0.04333143
000160 e7 76 da b8 9e 71 92 3c 55 d2 ef bc 51 c0 31 3d
       -0.00010417197 0.017876443 -0.029275099 0.043396298
000170 b5 9f aa 3c 82 99 54 3d 0e de 65 bd 12 f5 63 bd
       0.020828107 0.05190421 -0.05611997 -0.05565364
000180 85 30 65 3c 50 bf e6 bb d1 cb 82 3b 91 86 79 bb
       0.013988619 -0.007041849 0.003991582 -0.0038074593
000190 ab 27 af bb b5 0b 23 3d 95 86 aa bd 27 81 63 3d
       -0.005345305 0.039806087 -0.08326451 0.05554309
0001a0 73 71 b7 3c dd eb 0c 3d 50 37 82 bd a9 8a 73 bb
       0.022392964 0.034404624 -0.06358206 -0.0037161505
0001b0 9e c2 b7 3a 37 4c 6e 3d 94 ba e5 3c 5a 69 48 3c
       0.0014019792 0.058178153 0.028043069 0.012232149
0001c0 2f 2d 8b bd 95 d4 72 bd 4e b8 b7 bc e3 0e 60 bc
       -0.067957275 -0.059284765 -0.02242675 -0.013675424
0001d0 e0 40 0d 3d 50 21 3b 3b 54 c5 d6 3c a2 8a f0 bc
       0.034485698 0.0028553791 0.02621714 -0.02936298
0001e0 ee 82 86 bd 3d 82 67 bb 3c 9c e0 3a 37 ce 7d bd
       -0.065679416 -0.003532543 0.0017136405 -0.06196424
0001f0 7d 97 1d bd 7e 50 af 3b fa ee 87 bc 3d a4 6c 3d
       -0.03847455 0.0053501716 -0.016593445 0.057773817
