Task C/original/best_model_total.pth (torch, 47020 bytes, 8 tensors)

model.0.weight f4 [64, 128]
0	0xbd93f9d9	-0.07225389
1	0x3d80e06f	0.06292807
2	0xbd2503f6	-0.04028698
3	0xbd77fe1a	-0.060545065
4	0x3b8a849f	0.0042272354
5	0x3d4d2f22	0.050093777
6	0x3da90864	0.082535535
7	0x3d24b622	0.040212758
8	0xbc85e2cc	-0.016343497
9	0x3c14e890	0.00908865
10	0x3d5217e5	0.05129232
11	0xbcc6aaa3	-0.024251288
12	0x3d33fcbf	0.04394221
13	0xbd9970ba	-0.07492204
14	0xba4b4581	-0.00077541923
15	0xbda4ab35	-0.08040468
16	0x3a3cf800	0.0007208586
17	0x3d9a71b9	0.07541222
18	0xbd063333	-0.03276367
19	0x3d8c15c1	0.06840087
20	0x3d55be82	0.052183636
21	0x3d9fd85a	0.07804938
22	0x3c4685c0	0.012116849
23	0xbccae093	-0.024765288
24	0xbda69a84	-0.0813494
25	0x3d307b53	0.04308636
26	0xbda68f11	-0.081327565
27	0xbad91f68	-0.0016565146
28	0x3d5b242e	0.0535013
29	0x3da8dac7	0.082448535
30	0x3d3b957c	0.045796856
31	0xbd402273	-0.046907853
32	0x3ca1beac	0.01974424
33	0xbda114d5	-0.078653015
34	0xbbc8de6a	-0.0061300294
35	0xbd8bfc33	-0.068352126
36	0xbaf45964	-0.0018642363
37	0x3d180d9a	0.037122346
38	0x3d5911be	0.052995436
39	0x3d97cd19	0.07412166
40	0x3d37fca1	0.04491866
41	0xbcb21d74	-0.02174256
42	0x3ce3e7c0	0.027820468
43	0xbd588dd5	-0.052869637
44	0xbd6fe59c	-0.058568582
45	0xbdb341e2	-0.087528005
46	0xbd0bbcf8	-0.03411576
47	0x3c57b600	0.013165951
48	0x3c27e048	0.010246344
49	0x3d87b9e3	0.06627252
50	0x3d9ca26f	0.07648169
51	0x3cd722b8	0.026261672
52	0xbd68da0e	-0.05684858
53	0xbd80923b	-0.06277891
54	0xbd25ebdb	-0.040508132
55	0x3d1be906	0.038064025
56	0xbccdbf1d	-0.025115544
57	0xbcfd4caf	-0.030920355
58	0x3d10bdcc	0.035337254
59	0x3cc3cdc6	0.023901831
60	0xbcece6c8	-0.028918639
61	0xbd9a486d	-0.07533345
62	0x3ccb5878	0.024822459
63	0x3d98087f	0.074234955
64	0x3d95add9	0.073085494
65	0x3ce9b184	0.028527029
66	0x3d2b5efc	0.04183863
67	0xbc1ef45e	-0.009701816
68	0x3c9270cc	0.017876051
69	0xbc857598	-0.016291425
70	0xbcd0bbc4	-0.025480159
71	0xbc5e0685	-0.013551359
72	0x3bdca537	0.0067335623
73	0x3cea7d4c	0.0286242
74	0xbd5a336a	-0.05327169
75	0x3d5d1da2	0.05398334
76	0x3bb223d8	0.005436402
77	0x3d447725	0.047965188
78	0x3d861ec4	0.06548837
79	0xbc2060ce	-0.009788705
80	0x3da8fcc6	0.08251338
81	0x3d792bea	0.060832895
82	0xbd9225d6	-0.07136123
83	0xbbf83030	-0.007574104
84	0x3d6fbf1e	0.058531873
85	0x3cf66cbc	0.030081145
86	0x3d371b9e	0.044704072
87	0x3c3603c8	0.0111093
88	0xbd2c70aa	-0.042099632
89	0x3b5aefa5	0.0033407
90	0xbd3a67cc	-0.045509145
91	0xbceff0b6	-0.029289585
92	0x3c03cea8	0.008044876
93	0x3c94967a	0.018138159
94	0x3c387597	0.011258504
95	0x3d0767c4	0.033057943
96	0xbd0b8f72	-0.034072347
97	0x3d8a8207	0.06763082
98	0x3ca01bd8	0.019544527
99	0xbc255632	-0.010091351
100	0xbda105e2	-0.0786245
101	0x3d004374	0.03131433
102	0x3d92a809	0.071609564
103	0x3db20759	0.08692808
104	0x3d0d92c8	0.03456381
105	0x3cd70628	0.026248053
106	0x3dac75eb	0.084209286
107	0x3da9b27d	0.08285997
108	0x3cd25775	0.025676468
109	0xbbd61916	-0.006533752
110	0xbcf7542c	-0.030191503
111	0xbce87f9c	-0.028381161
112	0xbd874505	-0.06604961
113	0xbb0b7140	-0.002127722
114	0xbd6aa5fb	-0.057287198
115	0xbd5c9090	-0.053848803
116	0x3b3db4c0	0.0028946847
117	0xbd53d646	-0.05171802
118	0xbd1ae799	-0.037818525
119	0xbbb52080	-0.005527556
120	0x3d60cbfe	0.054882042
121	0xbcb41744	-0.02198375
122	0x3da2fad5	0.07957999
123	0x3dae4c20	0.085106134
124	0x3ce1c528	0.027559832
125	0xbc8e9e84	-0.01740957
126	0x3cd6cd7c	0.02622103
127	0x3d007a0e	0.0313664
128	0x3da0da47	0.07854133
129	0x3d816deb	0.06319793
130	0xbd0930c4	-0.033493772
131	0xbc0deec8	-0.008662887
132	0xbd981c8a	-0.074273184
133	0x3c3c74b0	0.01150243
134	0xbd4c24f7	-0.04983994
135	0x3d6d192a	0.057885326
136	0xbd92d476	-0.0716943
137	0x3d6c685c	0.057716712
138	0x3d857dc6	0.0651813
139	0x3da57fb4	0.08080998
140	0xbd4ea935	-0.050454337
141	0x3aa3d280	0.0012498647
142	0x3d91f0e8	0.07126027
143	0xbd6d9d84	-0.058011547
144	0x3d02d5de	0.03194224
145	0xbd9b9c49	-0.075981684
146	0x3da46ffd	0.080291726
147	0x3d9b7ae3	0.07591798
148	0x3d297168	0.04136792
149	0x3d830fba	0.06399484
150	0xbd1c02ed	-0.038088728
151	0x3c015274	0.0078931935
152	0xbd343938	-0.04399988
153	0xbd724caa	-0.059155144
154	0x3d8be169	0.06830103
155	0x3d5337e0	0.05156696
156	0xbc7a50b9	-0.015278035
157	0x3d776089	0.060394797
158	0xbd7754ae	-0.06038349
159	0x3da1af09	0.078947134
160	0xbdb2dcda	-0.0873353
161	0x3d1085de	0.035283916
162	0xbcacd3f2	-0.021097157
163	0xbd95b9ad	-0.073108055
164	0xbd894dc4	-0.06704286
165	0xbdb0f8fe	-0.086412415
166	0x3d9b2244	0.07574895
167	0xbcee684f	-0.029102473
168	0x3cc9e0aa	0.024643261
169	0xbc020e3f	-0.007937967
170	0x3d4e9842	0.050438173
171	0x3d0036c5	0.031302232
172	0xbc4533a2	-0.012036236
173	0x3d46368d	0.048391867
174	0x3d671dab	0.056424778
175	0x3d6d9fba	0.058013655
176	0x3d4da082	0.0502019
177	0xbd6e55d3	-0.058187317
178	0xbd958e92	-0.07302584
179	0xbd3c6841	-0.04599786
180	0x3d8584ce	0.06519471
181	0xbd6e914a	-0.058244027
182	0x3d61a565	0.055089373
183	0xbcdb39ee	-0.026761021
184	0xbd31c422	-0.043399937
185	0xbd690b4f	-0.05689555
186	0xbd847058	-0.0646674
187	0xbd3f193a	-0.046654917
188	0x3d34152e	0.04396551
189	0x3d1c3e4e	0.038145356
190	0xbd99f0b6	-0.07516615
191	0xbda7fd49	-0.08202607
192	0x3d87897c	0.0661802
193	0xbd69f82e	-0.05712145
194	0xbcbe751f	-0.023249207
195	0x3c3c93ea	0.011509875
196	0xbd898c36	-0.06716196
197	0x3d8d17c3	0.06889298
198	0xbcedc0ca	-0.029022593
199	0xbd5f50b7	-0.054520335
200	0xbc05d790	-0.00816907
201	0xbdaa2e6e	-0.08309637
202	0x3d7c5c2c	0.06161134
203	0xbcb85d96	-0.022505563
204	0xbd2046b0	-0.039129913
205	0x3bcd723d	0.006269722
206	0x3d99c884	0.075089484
207	0x3d8db815	0.069198765
208	0xbd1cccc5	-0.03828122
209	0xbd880aea	-0.06642707
210	0xbcab583b	-0.020916095
211	0xbd36627e	-0.044527523
212	0x3d0ebecf	0.034849938
213	0x3b97376b	0.0046147606
214	0xbd21fa55	-0.039545376
215	0xbb19f040	-0.0023489147
216	0xba15657e	-0.00056990224
217	0x3d952c0d	0.07283793
218	0x3d2e22ae	0.042513542
219	0xbc842755	-0.016132036
220	0xbd24df88	-0.04025224
221	0xbd229818	-0.03969583
222	0xb9866efb	-0.0002564116
223	0xbd744e78	-0.059645146
224	0x3d4d34d7	0.05009922
225	0x3d877ff5	0.06616203
226	0x3d9aa277	0.07550519
227	0xbd8a0e3b	-0.067409955
228	0x3d89d20f	0.067295186
229	0xbc92aa6f	-0.017903535
230	0xbd929ad2	-0.07158436
231	0x3db2531f	0.0870726
232	0xbc8bcd08	-0.01706554
233	0xbd8b6992	-0.06807245
234	0xbd76a306	-0.060214065
235	0x3d8251f7	0.0636329
236	0x3d0eadcd	0.034833718
237	0x3d3892e0	0.045061946
238	0xbc5bb833	-0.013410616
239	0xbd851426	-0.06497984
240	0xbd82ae02	-0.063808456
241	0xbda4a3a7	-0.08039027
242	0x3d98ab85	0.0745459
243	0x3d4a2b54	0.049357727
244	0xbd65464b	-0.05597524
245	0x3d684e66	0.05671539
246	0xbd37d9fe	-0.044885628
247	0xbc8d4bc8	-0.01724805
248	0xbd4dd988	-0.050256282
249	0x3d63fc4a	0.055660523
250	0x3d0df5b0	0.034658134
251	0xbce10ff7	-0.027473433
252	0x3d9ce616	0.07661073
253	0xbd2baeee	-0.041914873
254	0x39458a70	0.00018838956
255	0xbd8f1806	-0.06987004

model.0.bias f4 [64]
0	0xbcbae29c	-0.022813134
1	0x3cd6bfe4	0.026214547
2	0xbcef2bf1	-0.029195758
3	0x3d80d0dd	0.062898375
4	0x3d84ef2a	0.064909294
5	0x3d174a9c	0.036936387
6	0xbd55ef71	-0.052230302
7	0xbd8ac37c	-0.06775567
8	0xbd9df5ec	-0.077129215
9	0x3d6baf1c	0.057540044
10	0x3d99904b	0.07498225
11	0x3cf63637	0.030055149
12	0xba6f417a	-0.0009126883
13	0xbce95c18	-0.028486297
14	0x3d4ae5bc	0.049535498
15	0xbc854fca	-0.016273398
16	0x3da786c2	0.0818
17	0xbbee2c04	-0.0072684307
18	0x3d1026b5	0.035193164
19	0x3d5f10ee	0.054459505
20	0x3cd3e766	0.025867175
21	0x3dafed21	0.085901506
22	0xbd0125f5	-0.03153034
23	0x3b945c03	0.00452757
24	0xbd90d170	-0.07071197
25	0x3c41c9cb	0.011827896
26	0xbd0dd60d	-0.034627963
27	0xbaa27830	-0.0012395438
28	0x3d150b3d	0.03638767
29	0x3bad8a2b	0.005296012
30	0x3d3494da	0.04408727
31	0xbd43e4a0	-0.047825456
32	0xbd2f8360	-0.0428499
33	0x3d9bdae6	0.07610111
34	0xbd5e5c72	-0.05428738
35	0xbcb36a0e	-0.021901157
36	0xbc3bd3e7	-0.011464096
37	0xbd6f4fad	-0.058425594
38	0x3d08fd6a	0.0334448
39	0x3d941688	0.0723086
40	0x3c4240f0	0.011856303
41	0xbc96d339	-0.018411266
42	0xbd1e62f0	-0.038668573
43	0x3cb38f36	0.021918874
44	0x3b5cb8a2	0.0033679386
45	0x3b835ae7	0.004008639
46	0x3d650c6e	0.055920057
47	0xbd049f9e	-0.032378785
48	0x3ce3b469	0.027795987
49	0x3d2318b5	0.039818484
50	0xbd5bca62	-0.053659804
51	0x3dad397b	0.08458229
52	0xbd7d39b6	-0.061822616
53	0xbcc377d8	-0.023860857
54	0x3afd0540	0.0019303933
55	0xbbe71722	-0.007052318
56	0x3da6a0cf	0.081361406
57	0xbc9dd7b0	-0.019267887
58	0xbd237d6d	-0.039914537
59	0xbd924091	-0.07141221
60	0xbd58076b	-0.05274145
61	0xbd59786b	-0.053093355
62	0xbcf14832	-0.02945337
63	0xbb966640	-0.004589826

model.2.weight f4 [32, 64]
0	0xbd7fdea9	-0.062468205
1	0x3c65df63	0.01403031
2	0xbcb1e30a	-0.021714706
3	0xbb5caca2	-0.0033672233
4	0x3d007134	0.03135796
5	0x3ddf9f41	0.10919047
6	0x3c16fb50	0.009215191
7	0x3d376b88	0.044780284
8	0xbda0b77c	-0.07847497
9	0x3dd3d1ed	0.103427745
10	0xbd7df740	-0.062003374
11	0xbd9f3d8e	-0.077754125
12	0xbdfbf39f	-0.123023264
13	0x3dd66e5c	0.10470268
14	0xbd9ed574	-0.07755557
15	0x3d19441c	0.03741847
16	0xbdd93194	-0.106051594
17	0xbd68412f	-0.05670279
18	0x3d53c564	0.05170192
19	0xbdabb4a2	-0.08384062
20	0xbba6789f	-0.005080297
21	0xbd35a863	-0.04435004
22	0x3dc8acfb	0.097986184
23	0x3ca10c33	0.019659137
24	0xbd51613e	-0.051118128
25	0xbdadb6b3	-0.08482113
26	0xbd8822d7	-0.0664727
27	0x3d12ed87	0.035871055
28	0xbdf29d2b	-0.11846384
29	0xbcfead1c	-0.031088404
30	0xbd953377	-0.07285207
31	0x3dcd12fe	0.10013388
32	0x3d1b8471	0.037968103
33	0xbd8e04fb	-0.06934544
34	0xbd9a34cb	-0.07529601
35	0xbd7f1e6c	-0.062284872
36	0xbdb21684	-0.08695701
37	0x3d694a2f	0.056955513
38	0x3da70222	0.08154704
39	0x3de9acb6	0.11409895
40	0x3dbbf9e7	0.091785245
41	0x3c375e1d	0.011191872
42	0xbb87ad45	-0.0041405284
43	0x3d11af88	0.03556779
44	0xbdba5a99	-0.090993114
45	0x3da9973d	0.082807995
46	0xbd963d54	-0.07335916
47	0xbde5badf	-0.112172835
48	0xbcd6299d	-0.02614289
49	0x3d93ea62	0.07222439
50	0xbd2db14a	-0.042405404
51	0xbd08c721	-0.03339303
52	0xbbf91597	-0.0076014507
53	0x3d36e57f	0.04465246
54	0x3dcc2061	0.09967113
55	0xbda58584	-0.08082107
56	0x3dccdf78	0.10003561
57	0xbdb20fda	-0.0869443
58	0x3def24a0	0.116769075
59	0x3c56bf74	0.013107169
60	0x3da05a42	0.07829715
61	0xbccea99c	-0.02522736
62	0xbd6e1219	-0.058122728
63	0x3de8b087	0.11361795
64	0x3dbe8a1f	0.09303688
65	0xbd8c9335	-0.06864015
66	0x3c43d317	0.011952183
67	0x3de0b814	0.1097261
68	0x3cf6f345	0.030145297
69	0x3d927c18	0.07152575
70	0x3c2c44c0	0.010514438
71	0xbd988d0a	-0.07448776
72	0xbdfd4441	-0.12366534
73	0xbd5a6a54	-0.05332406
74	0x3dd4ab6e	0.1038426
75	0xbdd22f34	-0.102629095
76	0x3d468279	0.048464272
77	0xbd442c25	-0.047893662
78	0xbdfcbeab	-0.123410545
79	0xbd9e56ff	-0.07731437
80	0xbd0ada3c	-0.03389953
81	0x3dfa7cb3	0.12230816
82	0x3da86751	0.08222831
83	0xbdb5f960	-0.08885455
84	0x3d0c7396	0.03428992
85	0x3d84b73e	0.06480263
86	0x3db9d0fc	0.09073064
87	0x3ddc78ab	0.10765203
88	0xbd2cad6c	-0.042157575
89	0x3d9e9810	0.07743847
90	0xbdb11bdb	-0.08647891
91	0xbdf211b1	-0.118197806
92	0x3ddcbbf4	0.10778037
93	0x3cea321c	0.028588347
94	0x3d0b8f3c	0.034072146
95	0xbcebf5d3	-0.028803742
96	0xbdd8f850	-0.10594237
97	0xbde94a22	-0.11391093
98	0xbd01491e	-0.03156387
99	0x3df0968c	0.117474645
100	0xbdf7d7f2	-0.12101735
101	0x3dbdee25	0.09273938
102	0xbdb1b004	-0.086761504
103	0xbc8b2933	-0.016987419
104	0x3dad7317	0.08469217
105	0xbc9f9186	-0.01947857
106	0x3cc62040	0.0241853
107	0x3ddcf73f	0.10789346
108	0xbd9b9a55	-0.07597796
109	0x3db1a88d	0.08674727
110	0x3c51ea68	0.012812234
111	0xbdd48576	-0.10377018
112	0xbdb78ebe	-0.08962773
113	0x3dab74f3	0.08371916
114	0x3c7760e0	0.01509878
115	0xbdaf6e18	-0.085659206
116	0x3d8182bd	0.063237645
117	0xbd8d2e4a	-0.068935946
118	0x3d3be08d	0.045868445
119	0x3dab3f48	0.08361679
120	0xbdb62354	-0.08893457
121	0x3d008eec	0.0313863
122	0xbccd0ab8	-0.025029525
123	0x3c0db9d0	0.008650258
124	0xbc36b5f5	-0.01115178
125	0xbd79e53b	-0.061009627
126	0xbdc162bc	-0.0944266
127	0x3da4837f	0.080328934
128	0x3d55cf80	0.05219984
129	0xbcf06c09	-0.02934839
130	0xbde84caa	-0.113427475
131	0xbcf530b8	-0.029930457
132	0x3d9663c7	0.0734325
133	0xbd56df4a	-0.05245904
134	0xbdeb6c4c	-0.11495265
135	0xbdf72656	-0.12067859
136	0xbd80bb9b	-0.06285783
137	0x3dda3a21	0.106556185
138	0x3d430188	0.047608882
139	0x3c236ee1	0.009975166
140	0xbbc1fad2	-0.0059197927
141	0x3d7822db	0.060580116
142	0xbd106a2c	-0.035257503
143	0x3dda5e79	0.106625505
144	0xbda6417f	-0.08117961
145	0xbd5b5f5b	-0.053557735
146	0xbdbbbe48	-0.09167153
147	0x3d68287f	0.056679245
148	0xbdeb3075	-0.11483852
149	0x3d7eafcf	0.062179383
150	0x3d83d91e	0.06437896
151	0xbdf803ed	-0.12110124
152	0xbd9c1fa6	-0.07623224
153	0xbd921924	-0.071337014
154	0x3d16651e	0.036717527
155	0x3d926ff5	0.0715026
156	0x3d49ae04	0.04923822
157	0x3d705452	0.058674164
158	0xbdbf70ba	-0.09347673
159	0xbdd0678a	-0.101759985
160	0xbcb793ea	-0.022409398
161	0x3c458e29	0.012057819
162	0xbd147bdb	-0.03625093
163	0xbceec989	-0.029148834
164	0xbd62eb78	-0.05540034
165	0x3d96f3f2	0.073707476
166	0x3d04eb52	0.03245098
167	0xbd364420	-0.044498563
168	0x3dc93016	0.09823625
169	0xbdecbf06	-0.11559872
170	0xbde8060c	-0.11329278
171	0x3dc32fde	0.09530614
172	0xbd26ae77	-0.040693726
173	0xbdb34a22	-0.08754374
174	0xbdf5812d	-0.11987529
175	0xbdb20aa5	-0.086934365
176	0xbdb032f8	-0.086034715
177	0xbda28b52	-0.079367295
178	0x3da8d624	0.08243969
179	0x3da89250	0.08231032
180	0xbdc90a91	-0.098164685
181	0xbb91115b	-0.0044271178
182	0x3cad0fe0	0.021125734
183	0x3d17e619	0.037084673
184	0x3dd0dee5	0.10198764
185	0x3dde2018	0.10845965
186	0xbb1ad2c0	-0.0023624152
187	0x3df00924	0.117204934
188	0xbdb35f56	-0.08758418
189	0xbd10caf3	-0.035349797
190	0x3dd6f9e8	0.104968846
191	0xbd324e94	-0.04353197
192	0x3d4333e7	0.04765692
193	0x3dd00287	0.10156732
194	0xbd413371	-0.0471682
195	0x3daa69b8	0.083209455
196	0xbd23e974	-0.04001756
197	0xbda3db54	-0.08000818
198	0xbbe365e0	-0.0069396347
199	0x3d2eb529	0.042653237
200	0x3d01f853	0.03173096
201	0xbdc778f0	-0.09739864
202	0x3d915b7c	0.070975274
203	0x3d814aa9	0.063130684
204	0x39960a39	0.00028617846
205	0xbc3ecddb	-0.011645759
206	0xbb0d4ec0	-0.0021561831
207	0xbca08f10	-0.019599468
208	0xbda014d6	-0.07816474
209	0x3d0cd90e	0.034386687
210	0xbb57f374	-0.0032951506
211	0xbc645e01	-0.013938428
212	0x3dc91ec1	0.09820319
213	0x3d2e6197	0.042573538
214	0xbda7c82c	-0.08192477
215	0xbd06c9b7	-0.032907214
216	0xbc126257	-0.008934579
217	0xbb919295	-0.004442523
218	0x3c246edb	0.010036196
219	0x3d80cc71	0.06288994
220	0xbdda9cea	-0.1067446
221	0xbc5ef72a	-0.013608733
222	0x3abf3400	0.0014587641
223	0xbc36b0f6	-0.011150589
224	0xbbd9da3a	-0.006648329
225	0xbd922476	-0.071358606
226	0xbaf4cdf7	-0.0018677105
227	0x3d68ef13	0.056868624
228	0x3d9c875b	0.076430045
229	0xbddb7f00	-0.10717583
230	0xbda9757f	-0.08274364
231	0x3ba6a6f5	0.005085821
232	0xbdb9b5da	-0.090678886
233	0xbd706f72	-0.058700033
234	0xbdbf1891	-0.093308575
235	0x3d5bae3c	0.05363296
236	0xbc77916a	-0.015110353
237	0x3d46157f	0.048360344
238	0xbc646d3e	-0.013942061
239	0xbdbe0f4f	-0.09280264
240	0xba090700	-0.00052271783
241	0xbdd2a4fa	-0.10285373
242	0xbd65af46	-0.056075357
243	0x3b0240c2	0.0019875024
244	0x3cb3d838	0.021953687
245	0xbc09ebfa	-0.008418078
246	0xbce2fdd8	-0.027708933
247	0xbd3fcc15	-0.046825487
248	0x3d8e2e94	0.06942478
249	0xbc62d854	-0.013845522
250	0x3da40279	0.08008284
251	0xbdcf7b0f	-0.101308934
252	0xbda62a2c	-0.081135124
253	0x3dfa8ad1	0.122335084
254	0x3df88748	0.12135178
255	0x3dd95d0d	0.10613451

model.2.bias f4 [32]
0	0x3d849dfc	0.06475446
1	0xbcce07e0	-0.02515024
2	0xbd902c5f	-0.07039713
3	0xbd840321	-0.06445909
4	0xbd09dc90	-0.03365761
5	0x3dc43436	0.09580271
6	0x3d8ae827	0.06782561
7	0xbd8ce758	-0.06880063
8	0xbdcbce58	-0.09951466
9	0x3dcecfe1	0.100982435
10	0xbdebaee7	-0.11507969
11	0xbd675a89	-0.056482825
12	0x3ddb5312	0.10709204
13	0xbde052f0	-0.10953319
14	0xbdd143a6	-0.10217981
15	0x3d88127c	0.066441506
16	0xbcff4dff	-0.031165121
17	0x3de27cc9	0.11058957
18	0x3da20da1	0.07912756
19	0x3de07d37	0.10961383
20	0x3d8d703a	0.06906171
21	0xbddf26c8	-0.10896069
22	0x3b9c291f	0.004765644
23	0xbd2c99d6	-0.042138897
24	0x3df003c7	0.117194705
25	0x3df6211d	0.120180346
26	0xbd0d26d9	-0.034460876
27	0x3dfc7cf6	0.12328522
28	0xbd26ad5e	-0.04069268
29	0x3d8c3a81	0.06847096
30	0xbd8daecd	-0.06918106
31	0x3cf5ccf0	0.030004948

model.5.weight f4 [16, 32]
0	0x3dac3187	0.08407884
1	0xbdcf9d3f	-0.10137414
2	0xbe2a4320	-0.16627169
3	0x3e29fb28	0.16599715
4	0xbd30df03	-0.04318143
5	0x3e03b6b2	0.12862661
6	0xbbd360ac	-0.006450733
7	0xbc917edc	-0.017760687
8	0x3dc4761a	0.095928386
9	0xbe116296	-0.14197764
10	0xbe15e32a	-0.14637437
11	0x3dfb52bf	0.12271642
12	0x3c57ab5d	0.013163415
13	0x3e119c52	0.14219788
14	0x3d4ac9ad	0.04950874
15	0x3bee1cef	0.0072666327
16	0x3d2310c9	0.03981093
17	0x3d11ad43	0.035565626
18	0xbd9e7365	-0.077368535
19	0xbcdc1d19	-0.026869344
20	0xbe0413a3	-0.12898116
21	0xbabf2400	-0.0014582872
22	0x3db7a3b2	0.08966769
23	0xbdce71d9	-0.100803085
24	0x3dbd9f7f	0.09258937
25	0x3dcff694	0.10154453
26	0x3dd0b6fb	0.10191151
27	0xbcc4a2bd	-0.02400338
28	0x3e29bd5c	0.16576141
29	0x3dbf25e5	0.093334
30	0xbe297743	-0.16549401
31	0x3b611261	0.003434323
32	0xbe183ead	-0.14867659
33	0x3e08f07b	0.13372986
34	0x3ca1a2ab	0.019730886
35	0x3e13bf93	0.14428549
36	0x3e2c4c16	0.168259
37	0x3db7acb7	0.089684896
38	0xbdf7ddf6	-0.121028826
39	0x3e347da5	0.17626055
40	0x3deb8758	0.11500424
41	0xbe2de246	-0.16980848
42	0xbe33cab7	-0.17557798
43	0x3d2883b6	0.041141234
44	0x3d9a49f0	0.07533634
45	0xbe1aa35d	-0.1510138
46	0xbd1d3f8a	-0.038390674
47	0x3bf2c42f	0.007408641
48	0xbc4837c8	-0.012220331
49	0x3dc77da0	0.09740758
50	0x3d988fb6	0.07449286
51	0xbd5d3c5c	-0.05401264
52	0x3da318b7	0.07963698
53	0xbd8f9992	-0.07011713
54	0xbe186f74	-0.14886266
55	0xbe2edf12	-0.17077282
56	0x3d1982c5	0.037478227
57	0xbdbf82d3	-0.093511246
58	0xbd377f0a	-0.04479889
59	0x3daac3c9	0.08338124
60	0x3df9afd1	0.121917374
61	0x3aa3e4d5	0.001250411
62	0xbd56219f	-0.052278157
63	0x3e06589d	0.13119741
64	0x3e00d90c	0.12582797
65	0x3d0f6ae4	0.03501405
66	0x3d735bca	0.05941371
67	0x3cdfc26f	0.027314393
68	0xbd2da3d9	-0.042392585
69	0xbd6cdafb	-0.057826024
70	0xbd01d456	-0.03169664
71	0x3e307a7f	0.17234229
72	0x3dead999	0.11467285
73	0xbdacab19	-0.08431072
74	0xbe04ae62	-0.12957147
75	0x3d7511c3	0.059831392
76	0x3be2cdb2	0.0069214934
77	0xbd281b1b	-0.041041475
78	0x3cb6a2fe	0.022294518
79	0x3d8d8fa4	0.06912163
80	0xbe22a7d4	-0.15884334
81	0xbdbb2c16	-0.09139268
82	0xbe24dc36	-0.16099629
83	0xbcf07b14	-0.029355563
84	0xbdfb4950	-0.122698426
85	0x3d7096e1	0.05873764
86	0xbd5356df	-0.05159652
87	0x3da5d6f4	0.0809764
88	0x3e33334e	0.1750004
89	0xbd83e9d5	-0.06441084
90	0xbde99004	-0.11404422
91	0xbd85e968	-0.06538659
92	0xbd5b621a	-0.053560354
93	0x3c9803c7	0.018556489
94	0xbe32935a	-0.17439023
95	0xbde0ee38	-0.109829366
96	0xbd899912	-0.06718649
97	0x3d544e9f	0.05183279
98	0x3debddb2	0.115168944
99	0x3ded6c67	0.11592942
100	0xbdfd597b	-0.12370583
101	0x3e3221af	0.17395662
102	0x3c851bb8	0.016248569
103	0x3de402ef	0.11133372
104	0xbe26aa21	-0.16275837
105	0xbdba2267	-0.09088593
106	0xbe34008d	-0.17578335
107	0xbe1e9360	-0.15485907
108	0xbe0abb7f	-0.13548087
109	0xbe04c5d6	-0.12966093
110	0xbbc31f42	-0.005954654
111	0x3c8739c6	0.01650704
112	0x3c413bfa	0.011794085
113	0x3db4b6e8	0.08823949
114	0xbdac56dc	-0.084150046
115	0x3df9b7f4	0.121932894
116	0xbcda12d1	-0.0266203
117	0xbd5764e8	-0.052586466
118	0x3e246663	0.16054682
119	0x3d08d11b	0.033402544
120	0x3bc053d1	0.0058693667
121	0x3da7f53f	0.08201074
122	0x3ddff554	0.109354645
123	0xbe233282	-0.15937236
124	0xbe088d81	-0.1333523
125	0xbb5be702	-0.003355444
126	0xbb72fd77	-0.0037077346
127	0xbe15493c	-0.14578718
128	0x3df4a485	0.11945442
129	0x3df576c6	0.11985545
130	0xbd732261	-0.05935896
131	0xbe1169a1	-0.1420045
132	0x3d16d4a2	0.036823876
133	0x3da6992a	0.081346825
134	0xbdf561f8	-0.11981577
135	0x3dec0607	0.11524587
136	0x3b9ff76e	0.004881791
137	0x3e0a0b66	0.1348091
138	0xbd88b340	-0.06674814
139	0xbe05eb2a	-0.13077989
140	0x3b59d5ee	0.0033239084
141	0x3d08fe10	0.033445418
142	0xbdbad6db	-0.09123012
143	0xbd8ad131	-0.06778181
144	0x3c490031	0.012268112
145	0xbe1356fe	-0.14388654
146	0x3dda2fb8	0.10653633
147	0xbe01529d	-0.1262917
148	0xbd1d83d6	-0.038455807
149	0xbd96d677	-0.07365125
150	0x3d08a3a2	0.033359177
151	0xbe2bff88	-0.16796696
152	0xbbcd0ec1	-0.0062578623
153	0xbe1c4ab5	-0.15262873
154	0xbd764e93	-0.060133528
155	0xbcab9ffd	-0.020950312
156	0xbe07ea61	-0.13273002
157	0xba9fe4b3	-0.0012198895
158	0x3dfdc172	0.123904124
159	0x3e345fde	0.17614695
160	0xbd47b866	-0.04875984
161	0xbcc8f0af	-0.02452883
162	0x3e11b521	0.14229251
163	0x3cbab5bf	0.022791741
164	0x3d9889a1	0.07448126
165	0x3d091912	0.033471175
166	0xbd3f18ee	-0.046654634
167	0xbc9a83a5	-0.018861601
168	0x3c5ce4ab	0.013482253
169	0x3db000cf	0.08593904
170	0xbd5338c7	-0.05156782
171	0xbe04d38b	-0.12971322
172	0x3e1c99f8	0.1529311
173	0xbda724dd	-0.08161328
174	0x3a985e7c	0.0011624838
175	0xbdc00153	-0.093752526
176	0x3e236096	0.15954813
177	0xbe16759b	-0.146933
178	0x3d8f3be7	0.06993847
179	0x3c9f1674	0.019419886
180	0xbd96a9c8	-0.07356602
181	0x3b20554b	0.00244649
182	0xbe364711	-0.17800547
183	0x3ba2c9f1	0.004967921
184	0x3e30c9de	0.17264506
185	0x3d8df567	0.069315724
186	0x3d8b3796	0.067977116
187	0x3e1c11ad	0.15241118
188	0x3dc74c7e	0.097313866
189	0x3d816683	0.06318381
190	0x3b169a70	0.0022980236
191	0xbdc98b51	-0.098410256
192	0x3b8052fd	0.003916143
193	0x3d539d3c	0.051663622
194	0xbdfd7c73	-0.123772524
195	0x3e1db72b	0.15401904
196	0xbdb4f464	-0.08835676
197	0xbd38f843	-0.045158636
198	0xbe3168e2	-0.17325166
199	0x3e06583b	0.13119595
200	0xbe1ed8ba	-0.15512362
201	0x3d9f1f59	0.07769651
202	0xbdb736a1	-0.089459665
203	0x3e0d6420	0.13807726
204	0xbda80077	-0.08203214
205	0x3c52f8d0	0.012876704
206	0x3de995b5	0.114055075
207	0xbe32b5da	-0.17452183
208	0xbdff4f24	-0.12466267
209	0x3e0973da	0.134231
210	0x3d5a9790	0.053367198
211	0xbde43cb3	-0.1114439
212	0xbe0cd4d9	-0.1375307
213	0x3d6b382f	0.057426628
214	0xbe2ac0c3	-0.16675095
215	0xbdcd051b	-0.100107394
216	0xbe19123b	-0.1494836
217	0xbca63e22	-0.0202933
218	0x3e17752b	0.1479079
219	0x3d7c3131	0.06157035
220	0xbe0a9658	-0.13533914
221	0x3e32e510	0.17470193
222	0x3e21c5a7	0.15798055
223	0xbdfcd8ac	-0.123460144
224	0x3e314214	0.17310363
225	0x3e0bbb2d	0.1364562
226	0xbce452f1	-0.02787158
227	0x3e1a700e	0.15081808
228	0x3e17afe3	0.14813189
229	0x3d6a2aa7	0.057169583
230	0x3ddd1aa9	0.10796101
231	0x3e0c67bf	0.13711451
232	0xbd908ad0	-0.070577264
233	0x3d254761	0.040351275
234	0x3e16e099	0.14734115
235	0xbcb7cf58	-0.022437736
236	0xbdd25395	-0.10269848
237	0xbde764fc	-0.11298558
238	0xbd800df1	-0.06252659
239	0x3a61af2c	0.00086091715
240	0x3d3f6e93	0.04673631
241	0x3d5cd8b4	0.0539176
242	0x3dc58ede	0.096463904
243	0x3de95d09	0.11394698
244	0xbd1b36ef	-0.037894186
245	0xbe0d5b58	-0.13804376
246	0x3d31992b	0.043358963
247	0xbe082410	-0.13295007
248	0x3d1fc3ca	0.03900508
249	0x3e316cf8	0.17326725
250	0x3e37bc44	0.17942911
251	0xbdecf017	-0.11569231
252	0x3dbef325	0.0932372
253	0x3c333afb	0.010939355
254	0xbdd84b4e	-0.10561238
255	0xbda979f5	-0.082752146

model.5.bias f4 [16]
0	0x3dbcb658	0.09214467
1	0x3dfc6c3e	0.12325333
2	0xbe10d170	-0.14142394
3	0xbdf47c58	-0.11937779
4	0x3de6b109	0.112642355
5	0xbe24c55d	-0.16090913
6	0x3dad6039	0.08465619
7	0x3e2a5c3b	0.16636746
8	0xbe0bf5d7	-0.13667999
9	0xbe14d63b	-0.14534847
10	0xbe1e09bd	-0.15433402
11	0x3d875a65	0.06609038
12	0xbc7456d3	-0.014913279
13	0x3b146d5d	0.0022648193
14	0xbcc4f14d	-0.024040842
15	0x3da9b0af	0.08285653

model.7.weight f4 [2, 16]
0	0x3dbdc854	0.09266725
1	0xbe331785	-0.1748944
2	0xbd89a062	-0.06720044
3	0x3dcd8b59	0.10036344
4	0xbd4fa844	-0.05069758
5	0xbda6dd32	-0.081476584
6	0x3db692b1	0.08914698
7	0x3ddd5c27	0.10808592
8	0xbe6efed4	-0.23339397
9	0xbe293b48	-0.1652652
10	0x3e1509cc	0.14554518
11	0x3e141acf	0.14463352
12	0xbe370546	-0.17873105
13	0xbe6817f8	-0.22665393
14	0x3dc7e9e0	0.09761405
15	0xbd702d99	-0.058637235
16	0x3d91f943	0.07127621
17	0xbe5c6cbd	-0.21525855
18	0x3de901e6	0.11377315
19	0xbe4e60d9	-0.20154132
20	0xbe10b52a	-0.14131609
21	0xbd8e0626	-0.069347665
22	0x3e5dc288	0.21656239
23	0xbe730e3e	-0.23735902
24	0xbd099c6d	-0.033596445
25	0x3deb4be4	0.11489084
26	0x3d52ce7b	0.051466446
27	0xbd74b9c7	-0.059747484
28	0xbe438752	-0.1909459
29	0x3e0a574a	0.1350986
30	0x3cfa5e60	0.03056258
31	0xbe82730e	-0.25478405

model.7.bias f4 [2]
0	0xbd9f2d1f	-0.07772278
1	0xbde1478f	-0.10999977
