Task C/best_model_text.pth (torch, 556496 bytes, 4 tensors)

model.0.weight f4 [216, 512]
000000 ed f5 88 bd 91 9a 4d bd 4f eb a0 bc c3 72 7d bc
       -0.066875316 -0.050196234 -0.019643454 -0.015469256
000010 7c 3c 8e 3d 7c ea dc 3d a1 d6 30 3d 14 1f 2b 3d
       0.0694513 0.10786912 0.043173436 0.041777685
000020 a1 f4 20 3e 96 75 ad bb 10 f1 84 3d c4 0e 2a 3d
       0.15718319 -0.0052935584 0.064912915 0.041517988
000030 c6 73 bc 3d ef 42 f0 3c c4 75 c7 3d 40 c6 f6 3d
       0.092017695 0.029328791 0.09739259 0.12049532
000040 23 9c 2e 3e f4 1c df bd eb ea c7 3d fb b3 2a bd
       0.17051749 -0.10894194 0.09761604 -0.04167555
000050 cb 1a 9d bd e4 4b b0 ba f1 15 a8 bc bd d3 1b 3d
       -0.07671126 -0.0013450352 -0.020518275 0.038043726
000060 4e e9 c5 bd 7c 8d b5 3c fd cd 36 3d e8 a0 96 bc
       -0.0966364 0.022162192 0.04463004 -0.018387273
000070 47 72 86 bd 50 b7 09 3d 85 c0 7e 3c 01 6d e3 bc
       -0.065647654 0.033622086 0.01554883 -0.027761938
000080 35 4b aa bd 09 14 ed 3c 4a ba 26 3d f4 69 72 bd
       -0.08315126 0.028940218 0.040705003 -0.059183076
000090 0d e9 48 3a e7 c7 44 bc 36 d6 15 3b 8d fa ec 3c
       0.0007664122 -0.012010551 0.0022863275 0.028928066
0000a0 21 ec 76 bd aa eb f9 bc e0 03 9c 3c 07 c3 37 3d
       -0.060283784 -0.030507881 0.019044816 0.044863727
0000b0 e6 82 1b bc 12 b7 74 3c fd 5d b3 bc 8b 8a 44 bd
       -0.009491658 0.0149362255 -0.021895403 -0.047983687
0000c0 19 68 29 3b f5 d9 78 bd 58 14 02 be da 48 ff 3c
       0.00258494 -0.060754735 -0.12703073 0.031162668
0000d0 c2 dd f2 bd b3 51 0f 3d 63 c9 73 3d 89 34 eb 3c
       -0.11858703 0.034990024 0.05951823 0.028711574
0000e0 16 75 0d bd 48 d8 88 3d 75 95 3c 3d 0a 2e df bd
       -0.03453549 0.066818774 0.04604097 -0.10897453
0000f0 fc 8c b9 3c e6 4a 3a 3c 60 3f 86 bd 48 08 53 3d
       0.022650234 0.011370396 -0.065550566 0.05152157
000100 8b a6 ba 3d c3 fa 93 3c 0c d0 29 39 4a 93 50 3d
       0.09113797 0.018063908 0.000161946 0.050921716
000110 99 10 46 bd dc 25 9d 3a 5c 5c cc 3d b2 76 f9 3c
       -0.048355673 0.0011989432 0.09978554 0.030452106
000120 ed 2c 83 3d a0 70 c7 bd 95 8f a4 bc 35 d6 61 bd
       0.06405053 -0.097382784 -0.020087996 -0.055135924
000130 f8 4d a5 bd 5c 99 b8 3d df fd 73 3c b7 08 5d 3d
       -0.08071512 0.09013626 0.014892071 0.05396339
000140 0b 0c 49 bd 32 f2 94 bb 8e fa 07 3b d6 53 c5 bd
       -0.04908375 -0.0045454735 0.0020748707 -0.09635131
000150 16 9a 32 bd 64 f7 37 bd 3a e8 ee bc 88 d7 a7 bc
       -0.04360398 -0.044913664 -0.029163469 -0.020488515
000160 2d 72 05 be db 12 b4 3c 65 19 66 bd 83 ba 4a bd
       -0.13031836 0.021981647 -0.05617656 -0.049494278
000170 d6 ca 87 3b b3 a7 5a bd ec 80 9c 3d fc 7c 63 bd
       0.004144053 -0.053382587 0.076417774 -0.055539116
000180 39 7f df 3c d0 48 8d bc 71 96 cc bd a6 6f 86 3d
       0.027282344 -0.017246634 -0.09989632 0.06564264
000190 c4 a8 2f bb c8 49 94 3c e9 24 11 bc b2 29 89 bb
       -0.0026803473 0.018101588 -0.008858898 -0.0041858787
0001a0 6d bb 53 bd 7b 90 23 bd 85 15 f8 bd 79 e7 00 be
       -0.051692415 -0.03993271 -0.121134795 -0.125883
0001b0 3e 7c a5 bd 7a 60 f6 3b 43 11 18 3d 39 4d e0 bc
       -0.08080338 0.007518825 0.037125837 -0.027380573
0001c0 6e 11 7e 3a e8 6d cc bd b4 14 9e 3d 5a 15 35 3d
       0.0009691928 -0.099819005 0.077187926 0.044209816
0001d0 7b ee 94 bc 1c ab 89 bd 09 3e c0 3c 41 84 0b bd
       -0.018180123 -0.0672209 0.02346708 -0.034061674
0001e0 78 b3 72 3c c4 b5 41 bd ce 25 8b bd 5a 04 f9 3c
       0.0148132965 -0.047292486 -0.0679432 0.030397583
0001f0 53 e9 0c bd 62 5a 25 bb 2e 17 a7 bc 71 55 66 3d
       -0.034402203 -0.0025230874 -0.020396795 0.056233827
000200 9a 6e 23 3d ff c3 d9 bb 56 98 32 bd 8f 82 16 3d
       0.0399004 -0.006645679 -0.04360231 0.036745604
000210 9f d7 90 bd d3 dd 30 3d a3 6b ad bd 35 ea 6b bb
       -0.070723765 0.043180298 -0.08467796 -0.0035997753
000220 9d ba 18 3d 0c 83 a4 3c 2a 9c 4e 3c 13 ae f2 3c
       0.037287343 0.02008202 0.012610475 0.02962402
000230 a2 a9 2b bd b1 e5 a4 bd 8b aa e7 ba 48 8e e9 bd
       -0.04190982 -0.08051623 -0.0017674727 -0.11404091
000240 a2 82 a5 bd 8f bd 7c bd 1e d2 c0 3c 37 b1 11 3d
       -0.08081557 -0.061704215 0.023537692 0.035569396
000250 6a 72 8d 3d bf 58 18 3d 8b 3b 1b 3d 9a 95 c5 bb
       0.069065884 0.03719401 0.03789858 -0.006029797
000260 eb 73 c4 3b 19 23 82 bd 22 a1 9c 3d e6 0d 1e 3c
       0.005995264 -0.063543506 0.07647921 0.009646868
000270 2c dd b2 3d fd 6d 65 3b bd 06 d5 bd f3 77 d9 bc
       0.087335914 0.0035008185 -0.10401676 -0.026546454
000280 39 0d 82 3d 10 77 93 3d f9 cd 92 bd 14 52 2f 3d
       0.06350178 0.07200444 -0.071681924 0.042802885
000290 0c 9c 32 3d bc 2a af 3c b2 a4 9e bc 14 cf 74 bc
       0.04360585 0.021382682 -0.019365642 -0.014941949
0002a0 8b 61 9a 3c e1 fb 2f 3d ad 43 ab 3d 17 ec 01 3d
       0.01884534 0.04296482 0.083625175 0.031719293
0002b0 52 6c 78 bc 4c af bd 3d e5 0c 5a bd 83 e3 57 bd
       -0.015162544 0.09261951 -0.053234953 -0.052707206
0002c0 a4 53 1c 3d 35 63 9e bc 4a f1 e0 3d c2 46 32 3d
       0.038165703 -0.019334415 0.10983522 0.04352451
0002d0 cf b5 32 bd b7 96 31 bb 5a ae 2b bd 1b b3 92 bd
       -0.043630417 -0.002709789 -0.04191432 -0.07163068
0002e0 b7 d1 d4 3d b2 a8 44 3d 6f 18 d0 bc de 2c 1e 3c
       0.103915624 0.048012443 -0.025402276 0.009654252
0002f0 a8 d4 8a bc e6 03 b5 3d 2b 98 f8 bc 13 99 9e 3c
       -0.016947106 0.08838634 -0.030345997 0.0193601
000300 6a b4 00 3e da 92 a5 bc 8f 66 97 3d a8 78 72 bd
       0.12568823 -0.020211626 0.073926084 -0.059197098
000310 e6 86 13 be 52 99 91 3d 2e 1c 2e 3d 0f ca 6d bd
       -0.14406928 0.07109322 0.042507343 -0.058054026
000320 98 89 84 bd ea 7a d2 bd f4 49 36 3d 65 73 cb bd
       -0.064715564 -0.1027735 0.04450412 -0.09934119
000330 db 23 ed bc 4f 86 31 bd 97 08 fb bc 73 d0 31 bd
       -0.028947761 -0.043340977 -0.030643744 -0.043411683
000340 30 4a 0b bd bb 52 63 bd 01 49 ae 3c 15 7d da 3c
       -0.034006298 -0.05549882 0.021275045 0.026670972
000350 8e e5 8f bd 35 40 07 be 90 3a 81 bd 9f af b0 3d
       -0.07026206 -0.13208087 -0.06309998 0.08627247
000360 cf 23 4b bc 6e 19 78 3d 2c 03 38 3d 28 32 9c ba
       -0.012398674 0.060571127 0.0449249 -0.0011916803
000370 fb d4 a1 bd 97 06 d0 3c 63 d2 d6 bd d5 34 4c bd
       -0.07901951 0.025393767 -0.10489347 -0.049855072
000380 f2 02 b0 bc 5e 61 5f bd 51 9d 06 3e 9b 45 ec bd
       -0.02148578 -0.054536216 0.13145949 -0.11536714
000390 91 e6 82 bd 79 b7 97 3b e8 26 28 be 96 d7 81 3c
       -0.06391633 0.004630026 -0.16421092 0.01584987
0003a0 f3 06 7b 3c a9 67 a2 3d d3 27 45 3d d3 64 86 bc
       0.015321481 0.07929928 0.048133682 -0.016405499
0003b0 62 44 26 bd 90 10 3a 3d 96 0f 99 bd fc 85 c8 bd
       -0.04059256 0.04542595 -0.07473676 -0.097911805
0003c0 3e 8a b5 3c a8 6e 14 bc 8b aa 41 3a 38 d7 84 3c
       0.022160646 -0.009059586 0.00073877786 0.016215906
0003d0 48 e7 0e 3e f4 9b 81 bd d1 3e a4 bd 34 f1 b5 3b
       0.13955414 -0.06328574 -0.08019794 0.0055524353
0003e0 ef c5 06 3d b1 8e 97 bb f2 bf 1c 3d 54 58 31 be
       0.032903608 -0.0046251644 0.03826899 -0.17318851
0003f0 ac 7d 8b bd 88 bb 35 3d 64 d3 1a bd cc c6 fa bd
       -0.068110794 0.044368297 -0.037799254 -0.12244949

model.0.bias f4 [216]
000000 33 61 0e 3d 8c be e4 3d 36 4a 56 bc 9d 18 fe bc
       0.034760665 0.111691564 -0.013079217 -0.031017596
000010 fc f9 89 3c 2b 1c 10 bc 9b 1a 58 3c 9d 5b 6c bd
       0.016842835 -0.008795778 0.013189937 -0.057704557
000020 dd 41 a1 bc b3 87 4f bc f0 5c 8c bb 8e 97 b0 3d
       -0.019684726 -0.012666631 -0.00428354 0.08622657
000030 91 84 d5 3d 93 1e e6 3d 74 47 45 3c 6d 5e e4 3c
       0.10425676 0.112363 0.0120409615 0.027877057
000040 7e 46 91 3d b1 ae a5 3d 44 20 80 ba 2e 5b c4 3c
       0.070935234 0.0808996 -0.0009775241 0.02396926
000050 42 a7 7a 3d 37 54 cf 3c d9 bf 6a 3d d1 bf 11 3c
       0.061194666 0.025308711 0.057311866 0.00889583
000060 e5 c0 11 3c ee ab 93 3d d2 9d 33 3d 4d 6b 8f 3d
       0.008896087 0.07210527 0.04385168 0.07002888
000070 90 03 7f bc b5 0e 8f 3c 77 32 2f bc c0 46 83 3d
       -0.015564814 0.017463068 -0.010693184 0.06409979
000080 74 46 4f 3d cb 38 a7 3c 0d 28 a5 3c 32 61 2e bd
       0.0506043 0.020412823 0.0201607 -0.04257316
000090 4e 95 7c 3d 40 e6 55 3d 9d 1e 2c bd b5 bf 16 3d
       0.061665826 0.052221537 -0.042021383 0.03680392
0000a0 bb 49 32 bc 7d 29 e6 bc 75 d1 87 3d 1b e8 55 3d
       -0.0108818365 -0.028095955 0.06631748 0.052223306
0000b0 20 9f c5 3c e4 d6 9e 3d 33 f5 e0 bc cd 18 ba 3b
       0.024123728 0.07755831 -0.02746067 0.005679226
0000c0 d1 ef cb 3c 1e a4 ae 3d 41 ef df 3d 2a 46 74 3c
       0.024894627 0.085273966 0.10934306 0.014909307
0000d0 44 8d 4a 3d 46 b8 e0 bc 75 2d bf bb 07 47 79 3d
       0.049451128 -0.027431618 -0.0058342763 0.060858753
0000e0 9c 24 5c 3d 11 67 aa bc 50 b0 70 3d b1 9f 4c bc
       0.05374585 -0.020801099 0.058761895 -0.012489245
0000f0 92 05 23 3d f4 8c 5c 3d 36 d4 6f 3b d2 33 45 3d
       0.039800234 0.05384536 0.0036594993 0.048145123
000100 79 b1 b4 3c 2e f7 de 3d b7 e9 02 3d d2 f2 a5 3c
       0.022057282 0.108869895 0.03196117 0.020257387
000110 a7 24 23 bc 4d 03 18 3d 89 28 81 3d 8d 44 e8 3c
       -0.009957469 0.037112523 0.063065596 0.028353
000120 aa 99 95 3d 38 92 f1 3d 50 a4 55 3d 99 24 0d 3d
       0.073047 0.11795467 0.052158654 0.03445873
000130 af c0 fa bc 85 7a cc 3c 84 05 cd 3c 66 21 17 bb
       -0.030609457 0.024960766 0.025027044 -0.0023060679
000140 52 5c 1f 3d 50 f3 85 bd 47 f2 cc 3c 0d 58 10 bd
       0.038906403 -0.06540549 0.02501787 -0.03524022
000150 b3 80 ef 3c 3e 9b 9c 3c 83 13 bc 3d 0f 47 73 bb
       0.029236173 0.019116994 0.09183409 -0.0037121212
000160 c2 bf 57 bd 80 ed 8e 3d 84 ee 7d bc c8 3d 81 3d
       -0.05267311 0.06978893 -0.015498761 0.06310612
000170 99 6f b0 3c 10 bc 3b 3d 27 01 a4 3d 7a 80 1f 3d
       0.021537589 0.045833647 0.08008032 0.038940884
000180 a1 02 57 ba ca a6 11 3c 6e 29 3c 3c d6 24 90 3d
       -0.0008201991 0.008889863 0.011484487 0.07038276
000190 a6 6a 1c 3d 89 56 3c 3d 96 bb b6 3d 75 e1 a3 3d
       0.038187645 0.045980964 0.08922498 0.08001987
0001a0 91 04 73 bd 9b d4 30 3d e2 5c 8c 3d b8 6b 81 3d
       -0.059330527 0.043171506 0.068536535 0.06319374
0001b0 af 1c 8c bc 6f d9 97 3c a3 13 76 3a 9e 6f 9c 3b
       -0.017103521 0.018536298 0.00093870814 0.004774048
0001c0 24 25 28 bc 63 90 dc 3c 11 db ad 3c 97 1d 0a bd
       -0.010262761 0.026924318 0.021222623 -0.033719625
0001d0 51 c2 d2 bc 01 7b ea ba b2 34 86 3d 40 1f 6c 3d
       -0.025727423 -0.0017889441 0.065530196 0.05764699
0001e0 cc 27 32 3d 39 21 0f 3b 5a d8 24 3d d1 2e 02 bc
       0.043494985 0.002183987 0.04024539 -0.007945732
0001f0 75 9e 09 3d 8e bc 1c 3d dd ac b9 3d 0a c1 9c bc
       0.033598382 0.038265757 0.09066174 -0.019135017
000200 dc 15 ce 3c 19 86 06 3d 4d 79 80 3d d3 af 92 bc
       0.025156908 0.03284273 0.06273136 -0.017906105
000210 ca 2c 48 ba 7d f2 58 bd 15 df a3 3d e1 40 64 3c
       -0.00076360686 -0.05296563 0.08001534 0.013931484
000220 37 98 6b 3d 23 3b 1b 3d 0b e2 93 3c 16 30 a9 3d
       0.05751821 0.037898194 0.018052122 0.08261125
000230 61 0d a5 3d 22 81 8a 3c bf 99 21 bd 88 e3 31 bb
       0.080591924 0.016907278 -0.039453264 -0.0027143676
000240 9d 6a 22 bc 46 37 45 3c f1 f4 ec 3b 08 14 63 bc
       -0.009913114 0.012037104 0.0072313477 -0.013859756
000250 21 3f 9a 3d 74 79 57 bd 29 5f d9 bc a8 62 03 3e
       0.07531572 -0.05260606 -0.026534634 0.12830603
000260 0b c2 3e 3d e7 cc f2 3a f4 63 af 3d f4 cb 81 3d
       0.046571773 0.00185242 0.085639864 0.06337729
000270 35 3e 9a bc b5 9a 81 3d 1d f8 78 3d 6f 39 a5 3c
       -0.01882849 0.06328336 0.060783494 0.020168988
000280 a4 ac c3 3a f3 fa f9 bc 71 b5 6c 3d 20 ea 74 bc
       0.001492877 -0.03051517 0.057790224 -0.014948398
000290 bd 05 ab 3d fe a6 1e 3d f2 d2 0a 3d 45 da ed 3b
       0.08350704 0.038733475 0.03389258 0.007258686
0002a0 c0 9d 89 3c 9f 33 42 3d fa 9a 21 3d d1 ac 0f bd
       0.016798854 0.04741251 0.039454438 -0.03507692
0002b0 6d 97 06 bd 85 68 34 bc 0b 95 2d 3d 15 d9 2a 3d
       -0.032859255 -0.0110112475 0.042378467 0.04171093
0002c0 19 9a 46 bc 79 24 96 3c 0f 6b ed 3c ef 65 32 bd
       -0.012121701 0.018327938 0.028981714 -0.043554243
0002d0 bc 72 1f 3c b6 4b 49 bc 73 2e cc 3d 58 32 fa bc
       0.009731945 -0.012286117 0.09969797 -0.030541584
0002e0 ac a5 33 bc f2 fd bf 3d d8 61 e2 bc 31 a4 83 3d
       -0.010964792 0.09374608 -0.027634546 0.064278014
0002f0 a0 38 0f 3d 58 4e 69 3d 8a 49 99 3d cf 6d 2f bc
       0.03496611 0.05695948 0.074847296 -0.010707333
000300 b9 a0 f8 3c fe d4 74 bd f0 c9 8c bc 15 df ea 3c
       0.030350076 -0.059773438 -0.017186135 0.028670827
000310 06 21 62 3d b3 db e5 3c f5 3f 43 3d eb 3f a1 3d
       0.055207275 0.028058862 0.047668416 0.078735195
000320 7a 15 f7 3c f8 60 1b bb 57 f3 69 3d bc e1 8e 3c
       0.030161608 -0.002370892 0.057116833 0.017441623
000330 a4 3b 35 bd ea c3 d1 3d ba a7 87 3c 3e d8 75 3d
       -0.04424633 0.10242446 0.01655947 0.060020678
000340 10 76 40 3c fc 20 96 3d b3 4b 98 bb 46 78 70 bd
       0.011746898 0.0733051 -0.004647696 -0.05870845
000350 3c 73 a1 3c fd 11 f9 3d 7f a7 18 3e 37 9b fe 3d
       0.019708268 0.12161634 0.14907645 0.12431949

model.2.weight f4 [128, 216]
000000 18 ff 3d 3e 7c 4e bd 3d 4e 3e 10 3c 85 78 50 3e
       0.18554342 0.09243485 0.008803917 0.20358475
000010 a7 07 29 bd d6 da 8c be 56 a9 ef 3d e6 ec e9 3d
       -0.041267063 -0.2751071 0.1170222 0.11422138
000020 9b d3 42 be 54 5a 7e bd 8e d1 14 3e 75 52 9e bc
       -0.19026034 -0.062097862 0.14533064 -0.019326428
000030 23 15 04 3d 9a 84 d8 3d e5 57 47 3e 93 cf 6e 3b
       0.03224672 0.10572167 0.19467123 0.0036439642
000040 d8 ec 55 3c 70 5a b5 bd fc 45 8f 3b 92 95 02 be
       0.013056956 -0.0885514 0.0043723565 -0.12752369
000050 0d 60 b6 bd 4b f2 26 3e bc 2e 15 bd f0 63 a2 be
       -0.08905039 0.16303365 -0.036421522 -0.3171687
000060 7e 7f 03 bd 1b bc 0f 3e 21 4f 00 3e d1 43 13 3e
       -0.032104008 0.140366 0.12530185 0.14381339
000070 a0 3f a7 bd d8 82 f0 3d 81 a4 22 3e c2 94 a1 bd
       -0.081664324 0.117437065 0.15883066 -0.078897014
000080 75 0c 04 3e a9 a3 6f bd 01 12 62 3e 78 8a 6f be
       0.12895377 -0.058505688 0.2207718 -0.23392665
000090 dd 67 5c 3d bc 92 8a bd c0 fb 3b be a8 1a dc bd
       0.05380999 -0.067662686 -0.18357754 -0.10747272
0000a0 44 26 9c 3d 91 49 9f bd 37 53 b4 bd e4 13 37 bd
       0.07624486 -0.077777036 -0.088049345 -0.044696704
0000b0 4d 5a 45 be 82 0e bc ba 0c a2 43 3e 47 86 77 3d
       -0.19272728 -0.0014347585 0.19104785 0.06043079
0000c0 53 5a 9e be a7 f2 a2 3d d9 5b bd 3d ff b1 68 3d
       -0.30928287 0.079564385 0.09246034 0.056810375
0000d0 73 f9 c1 3d ab fb 38 3e 40 95 0f 3c 6e 1b 62 bd
       0.09471407 0.18064754 0.008763611 -0.05520194
0000e0 0f 48 ba bd cc 7c b7 bd 9b e6 ef 3d 3a a3 23 bd
       -0.09095775 -0.0895935 0.117139064 -0.039950587
0000f0 f8 3e a7 3c 9c 6b 7a 3d ac dc 1e 3e ac 92 fa 3d
       0.020415768 0.06113778 0.15513867 0.12235007
000100 2d f5 12 be bd 3d a9 bc 61 29 d3 3d 65 7f 05 3e
       -0.1435134 -0.020659322 0.10310627 0.13036878
000110 4c 6b 08 3e 23 28 c2 3d 62 e7 ab be f9 44 0b 3e
       0.1332218 0.09480312 -0.3357497 0.1360053
000120 f9 8a 83 3d b3 55 f1 3c d2 71 14 3d 8e c8 25 3d
       0.06422991 0.02945981 0.03624136 0.040474467
000130 3e eb aa 3d 22 82 63 3e 9a de dd bc d4 d1 1a be
       0.0834565 0.2221761 -0.027083684 -0.15119106
000140 74 ab 84 3e 16 d2 2d bd 43 77 75 bd b3 7b a7 3d
       0.25912058 -0.04243668 -0.05992819 0.08177891
000150 1b c7 4b be 3d 14 2f 3e 4d 25 17 3d 6d da 2b bd
       -0.19900171 0.17097564 0.036900807 -0.041956354
000160 a5 f2 30 3d 4f e0 2b 3d 25 ca d5 bd 26 54 c1 3d
       0.043200154 0.041961964 -0.10438947 0.09439878
000170 da e6 de 3d d2 65 a8 bd be 07 79 bd 0d bc 8e 3d
       0.10883875 -0.08222546 -0.0607984 0.069694616
000180 39 51 77 3e 8e e4 14 3e 4b 38 d5 3d 0e 8e 89 3b
       0.24152078 0.14540312 0.10411128 0.0041978424
000190 08 bb 10 3e 40 a3 75 3d 90 fc 70 3c 00 2f 83 3d
       0.14133847 0.05997014 0.014708653 0.06405449
0001a0 23 77 4f 3e a6 3b b0 bd e2 bd f3 3d 91 8b 87 3c
       0.20260291 -0.08605127 0.11901452 0.016546043
0001b0 bd ad 01 be bc 47 79 bb b4 3a eb 3d ea 7c 2d be
       -0.12663932 -0.0038037142 0.11485806 -0.16942182
0001c0 94 23 90 3a 31 df 8c 3c 60 d1 ce bd 8d f6 5a bd
       0.0010996931 0.01719627 -0.10098529 -0.053457785
0001d0 15 08 01 3e 75 88 45 3d 5c b5 77 be 0a 5b 75 3b
       0.1260074 0.04822584 -0.24190277 0.0037438297
0001e0 0e 5b de bd ae 9c b2 bd ad e0 92 3d 60 b7 fe bd
       -0.10857211 -0.087212905 0.0717176 -0.1243732
0001f0 39 da 21 3d 25 55 1d bc 61 a9 0c 3d b9 3c 2a 3d
       0.039514754 -0.00960282 0.03434122 0.041561816
000200 d0 a5 8f bd 33 fb 28 3e 79 dc c6 3b 97 fa 51 3e
       -0.07014048 0.16502075 0.006068763 0.20505749
000210 6d 46 2e 3e 8b 9e 1a 3e bb f0 05 3e d3 e5 68 3d
       0.17019053 0.15099542 0.13080113 0.056859802
000220 6a ed 23 3d 2d 9b 7c bd cc fc 5d bd 6f 36 07 3d
       0.040021338 -0.061671425 -0.054196164 0.033010896
000230 d7 93 66 3d 7d d5 b3 3d ac be f7 3d 51 0c 90 3c
       0.056293335 0.08780954 0.12096915 0.017583998
000240 c8 ca ce bd 09 63 05 bd 83 fa 30 bd 5c b1 5c 3e
       -0.10097271 -0.03256515 -0.043207657 0.21552032
000250 7b db 10 3e 80 cd 7b 3e a7 1a 38 be 73 9a 89 3d
       0.14146225 0.24590111 -0.17978917 0.06718912
000260 ac 20 80 bd 95 39 30 3e 07 f1 be 3d bb f4 56 3d
       -0.06256232 0.17209466 0.09323316 0.052479487
000270 87 7e 17 3e c3 b0 20 3b 27 9b b9 3d 02 e2 82 3c
       0.1479436 0.002451942 0.09062796 0.01597691
000280 ce 06 15 3d c8 41 2e 3e 90 cc b0 be 05 d3 35 3d
       0.036383443 0.17017281 -0.3453107 0.044390697
000290 cb 5c 87 3d 39 7b 50 3d 8d 1b 35 be 68 bb 0a be
       0.06609496 0.050898764 -0.17686291 -0.13548052
0002a0 22 fb 1c 3e 98 16 63 be b3 ec b5 3c eb 2d 5a 3e
       0.15330175 -0.22176588 0.022207594 0.21306579
0002b0 29 2f 02 3e c6 b8 83 bc 2a f3 a2 3d 8b cd 69 bd
       0.12713303 -0.016079318 0.07956536 -0.057080787
0002c0 fb ed fb 3d fc 41 53 3e 5e 7e de 3d 7c 37 f7 3c
       0.123012505 0.2063064 0.108639464 0.030177824
0002d0 91 6f 11 3d fc cb c3 bc 8f d4 5f ba a7 e5 e1 bc
       0.03550679 -0.023900978 -0.00085384486 -0.027575327
0002e0 91 47 0f 3e a9 87 11 3d b9 e8 46 3e 10 3c 7a 3d
       0.13992144 0.035529766 0.19424714 0.061092436
0002f0 ce 57 17 3e 62 f7 81 3d 43 65 8f 3d 3c 1c 46 3e
       0.14779589 0.06346013 0.07001736 0.19346708
000300 3a d5 c3 3b ae 18 59 3e ba 57 42 be 58 74 28 3e
       0.0059763463 0.21200821 -0.18978778 0.16450632
000310 aa 20 09 3e 8c a0 00 bc 9c da b3 3d 8e 79 88 be
       0.13391367 -0.007850777 0.08781931 -0.2665524
000320 f3 d2 00 3e 43 66 69 3e 0b 3c 4f bc 6b 18 98 bd
       0.1258047 0.22792916 -0.012648593 -0.07426532
000330 ae 7a 16 bd 31 84 55 3d 2f dd 52 3e 6c 14 37 3c
       -0.03673809 0.05212802 0.20592187 0.011174303
000340 b8 b8 bb 3d 20 6d 11 3d 8e a1 f4 3d 02 63 1b 3e
       0.09166092 0.03550446 0.119448766 0.15174487
000350 06 95 44 3e 22 98 cd 3d b6 5e be 3d 72 0f e1 3a
       0.19197473 0.10038783 0.092954084 0.0017170741
000360 82 13 1a 3d 5b 41 2b bd 4c 3f 20 3c ef 01 13 3c
       0.03761626 -0.041810375 0.009780716 0.008972629
000370 9f 3c 3f bc 97 2f 6b bc 1b b7 d2 bc f3 4b 2e bc
       -0.011672168 -0.014354608 -0.025722077 -0.010638225
000380 46 4b c5 bc 5a 28 b9 bc 9f 1d 85 3d 34 de 71 bd
       -0.024083745 -0.022602249 0.064997904 -0.0590498
000390 0f 32 aa bc 11 8f 14 3c 49 d5 b1 bc e1 12 a4 3c
       -0.020775823 0.009067313 -0.021708148 0.020028533
0003a0 d7 e7 11 3d b0 59 84 bd 49 1e 4c bc a9 a7 04 3c
       0.03562149 -0.06462419 -0.012458392 0.008096614
0003b0 ea 5a 4b bd e2 03 37 bd 3a 75 75 3d 87 d2 27 3d
       -0.04964725 -0.044681437 0.05992625 0.04097226
0003c0 3c dd ec b9 20 5d c0 3c 71 6f 42 3d 6f 78 9f bc
       -0.0004517826 0.023481905 0.04746956 -0.019466607
0003d0 27 2c 26 bd 04 89 8f 3d 7a 73 57 bd c4 7c 52 3d
       -0.04056945 0.070085555 -0.05260036 0.051388517
0003e0 d6 a5 20 bc 2d f6 66 bd 51 2c a7 bc 8a 34 12 bd
       -0.009805163 -0.056387115 -0.020406874 -0.035694636
0003f0 e5 57 fb bc c4 fe 68 bd f7 73 86 bd c2 59 39 bd
       -0.03068156 -0.05688359 -0.06565087 -0.045251615

model.2.bias f4 [128]
000000 02 08 e2 bc a7 92 84 bc ac a6 9d 3b e2 a7 48 3b
       -0.027591709 -0.01618321 0.0048111286 0.0030617644
000010 0e cb 88 3d 10 87 1a 3d 0e d5 12 3c e9 e1 24 3d
       0.066793546 0.037726462 0.008961929 0.040254507
000020 4e 92 18 bd 5c 3f 92 bd de 9e 84 bc 4a e1 64 3d
       -0.037248902 -0.07140991 -0.016189035 0.055878915
000030 85 f5 48 bd f0 49 7b bd 88 6f 0a 3d f3 1d a2 3d
       -0.04906227 -0.06134981 0.03379777 0.079158686
000040 cc 47 bd 3c a9 b8 7c 3c 04 68 f6 3c 68 7b 79 3d
       0.023105524 0.015424886 0.030078895 0.060908705
000050 b4 ff f2 3c 81 bb 60 3d 11 ac 62 39 6a 37 21 bc
       0.029662944 0.054866318 0.0002161714 -0.009839872
000060 4f 81 62 3d 6f f6 63 3d f9 2b 99 bd ab 5b fd 3c
       0.0552991 0.05565494 -0.0747909 0.0309275
000070 cc 4b b0 3d ed 30 b5 bc 21 78 31 3d 5c 22 d5 3c
       0.08608207 -0.022118056 0.043327454 0.02601736
000080 49 7c 60 3d 8d e7 7b bd 7a 56 f4 3b 46 37 97 bc
       0.054806028 -0.06150012 0.007456598 -0.018458974
000090 8e 22 5c 3d 61 42 23 3c bc 79 a2 bc bf 9a 82 3d
       0.05374389 0.009964556 -0.019833438 0.06377172
0000a0 3b ac 0b bc 30 32 6b 3c 40 c1 44 bb fd 47 3b bd
       -0.00852495 0.014355227 -0.0030022413 -0.04572295
0000b0 ce 3f eb 3c 4e b7 d0 3c ff 3c b6 ba c5 c8 9b bc
       0.028716948 0.025478031 -0.0013903676 -0.019016633
0000c0 08 e7 d3 3d c5 54 a7 bc 8c 9a 5c bc 57 70 79 3d
       0.103468 -0.020426163 -0.013464581 0.06089815
0000d0 44 7c 1a bd ad 31 04 bd c5 ee 5f 3d 50 a3 95 bc
       -0.037716165 -0.032273937 0.054671068 -0.01826635
0000e0 ff e8 59 3d ae bf 96 bc e2 b9 56 3d 84 2d 69 3d
       0.053200718 -0.018401947 0.052423365 0.056928173
0000f0 5e a0 6b 3c b9 46 71 3c 03 9e ef bc d1 6b 3b 3d
       0.014381496 0.014726334 -0.02925015 0.04575712
000100 50 8c 56 bd 8b cc 4e 3d 41 b5 7a bb f2 21 c9 bc
       -0.052379906 0.050488036 -0.0038255008 -0.02455232
000110 8f ee 13 bd 37 09 85 bd a0 53 33 bd c5 09 61 3d
       -0.03611618 -0.06495898 -0.043780923 0.054940958
000120 cc 37 87 bd a3 a7 c1 bb 74 36 22 3c f9 cd ae 3d
       -0.06602439 -0.0059098764 0.009900678 0.0853538
000130 17 34 02 3a 20 77 e2 3c a7 43 81 bc d3 bd f5 bb
       0.00049668684 0.027644694 -0.01577933 -0.0074994355
000140 12 93 bb bc f6 db f6 3c 33 a2 78 3b 86 d9 07 3d
       -0.022897277 0.030134182 0.0037938475 0.03316643
000150 c0 87 c9 3c 7d a8 e1 3c 2b 50 bc bc a8 40 4c bd
       0.024600863 0.027546162 -0.022987446 -0.04986635
000160 8f 2a 80 bb f8 2b cf 3c d4 8f fb bc 7a d8 b3 3d
       -0.0039113234 0.02528952 -0.030708231 0.08781524
000170 72 39 1b 3b 05 c0 e3 3c 7e ea 80 bd e9 45 58 bd
       0.0023685363 0.027801523 -0.06294726 -0.052801047
000180 57 4c 4d 3d 4b 1b 86 3c 08 bb 3e 3c 89 c9 61 bd
       0.05012163 0.016370436 0.011641271 -0.05512384
000190 34 5e 04 bc cb 0c 17 3d 62 f6 a2 bd 44 48 57 3d
       -0.0080791 0.036877435 -0.0795715 0.052559152
0001a0 00 5a e9 3c 21 df 83 b9 4c 62 7d bd ec 2d ce 3c
       0.028485298 -0.0002515251 -0.06186132 0.025168382
0001b0 a2 7d 40 bd 78 ef f8 3d 66 80 f8 3c 61 d6 01 3c
       -0.046994813 0.1215505 0.030334663 0.007924647
0001c0 e4 2e 57 bd d9 78 89 bd b3 4e ac bc b3 70 15 3d
       -0.052534953 -0.06712503 -0.02103362 0.03648443
0001d0 a1 5f aa 3c cf ed a9 3b d6 34 86 3d 49 fc 01 bd
       0.020797553 0.0051858197 0.065530464 -0.03173474
0001e0 89 38 82 bd ca bc b1 bb 18 eb 61 3c 03 3a 09 3c
       -0.063584395 -0.0054241167 0.013788961 0.0083756475
0001f0 51 ba 31 bd 4f ed 14 3c a6 10 1d bc 72 a7 4a 3d
       -0.043390576 0.009089782 -0.009586489 0.049476095
